PG/checkpoint2.pth (torch_old, 1390 bytes, 4 tensors)

fc1.weight f4 [20, 4]
0	0x3f70d811	0.9407969
1	0x3f103144	0.56325173
2	0x3feb7f8b	1.8398298
3	0x3fa6e5df	1.3038901
4	0x3fadd0af	1.357931
5	0x3f90acb3	1.1302704
6	0x3fabedac	1.3431907
7	0x3f4a8471	0.7910834
8	0x3e4003b6	0.18751416
9	0xbe5c61c2	-0.21521667
10	0x3fae8f48	1.3637476
11	0x3f8946cc	1.072473
12	0x3f8d6924	1.1047711
13	0x3f0166b9	0.5054737
14	0xbea59051	-0.32336667
15	0xbf2f36ee	-0.6844319
16	0x3f6cb123	0.9245779
17	0x3f54217d	0.828636
18	0x401534fa	2.3313584
19	0x3f965025	1.1743208
20	0xbf458c74	-0.7716744
21	0xbf7545f0	-0.9580984
22	0xc004c0c7	-2.0742662
23	0xbf9a5fb0	-1.2060452
24	0xbfd15875	-1.635512
25	0xbf6081fe	-0.8769835
26	0xbf5beaaa	-0.85904944
27	0xbeaf7a5d	-0.34273043
28	0xbe0d7f22	-0.13818029
29	0x3f040578	0.51570845
30	0x3fc65d6b	1.5497259
31	0x3faa0df2	1.3285506
32	0xbf3e3cab	-0.7431132
33	0xbf7edff0	-0.9956045
34	0xc026520c	-2.5987577
35	0xbfdd4b4c	-1.7288604
36	0xbf294a4f	-0.6612901
37	0xbf5d3139	-0.8640323
38	0xbff488ce	-1.910425
39	0xbfc233a1	-1.5172006
40	0xbdad7d89	-0.084712096
41	0xbdceb5b6	-0.10093252
42	0x3f3e33ec	0.74297976
43	0xbafea4c9	-0.0019427772
44	0x3f1255a9	0.5716196
45	0x3f794aa8	0.9737954
46	0x3fd1022e	1.632879
47	0x3f935627	1.1510667
48	0xbf738409	-0.95123345
49	0xbf0669f4	-0.5250542
50	0xc01217ba	-2.2826982
51	0xbfcca6c9	-1.5988399
52	0x3fb04f63	1.3774227
53	0x3f0f454c	0.55965114
54	0x401c7f8f	2.4452856
55	0x3fefae0b	1.8724989
56	0x3f8568a2	1.0422556
57	0x3ee1ecfd	0.4412612
58	0x4000d10c	2.0127592
59	0x3f9a1134	1.20365
60	0x3f321ff9	0.69580036
61	0x3f9147d4	1.1350045
62	0x402fd226	2.7472014
63	0x3ff24336	1.8926761
64	0xbfd1c350	-1.638773
65	0xbf4f9c85	-0.81098205
66	0xbf89bf5f	-1.0761527
67	0xbeadd778	-0.33953452
68	0xbfce667a	-1.6125023
69	0xbf98047b	-1.1876367
70	0xbfd14b85	-1.6351172
71	0xbf73ebf9	-0.9528194
72	0x3f7f68ff	0.99769586
73	0x3f2f9c05	0.6859744
74	0x400b184a	2.1733575
75	0x3fa96f6e	1.3237131
76	0x3f5b0a83	0.85562915
77	0x3f680eee	0.9064778
78	0x3feb6edd	1.8393208
79	0x3fd6f02f	1.6792048

fc1.bias f4 [20]
0	0xbe68fba6	-0.22752246
1	0xbc80ddb3	-0.015730714
2	0xbe4bd61c	-0.19905895
3	0x3e0094da	0.12556782
4	0xbe4e2498	-0.20131147
5	0x3de799f0	0.11308658
6	0xbe77898f	-0.24173568
7	0xbcc1a08d	-0.023636127
8	0x3da0c05b	0.07849189
9	0x3e24b4d5	0.16084607
10	0xbdeaf954	-0.11473337
11	0xbe026bda	-0.12736455
12	0x3e34bce8	0.17650187
13	0xbd57beb3	-0.0526721
14	0xbe715689	-0.23568167
15	0xbe0819a3	-0.1329103
16	0xbe143c3f	-0.14476107
17	0x3d909d7e	0.07061289
18	0xbe5fe920	-0.21866274
19	0xbe2c8ec1	-0.16851331

fc2.weight f4 [2, 20]
0	0xbee2ac1f	-0.44271943
1	0xbf08f50f	-0.5349893
2	0x3e40f596	0.18843684
3	0xbe9094a4	-0.28238404
4	0xbf1a9e7f	-0.60398096
5	0x3ebfb522	0.3744288
6	0x3ecc749f	0.39932725
7	0xbdb139de	-0.086536154
8	0x3fafe354	1.374125
9	0x3f5fea86	0.8746723
10	0xbaafa383	-0.0013400171
11	0xbe9c1fa1	-0.3049288
12	0x3f79f934	0.9764588
13	0xbf8d050d	-1.1017166
14	0xbef2231a	-0.47292405
15	0xbfae8497	-1.3634213
16	0x3f1b1ede	0.60593975
17	0x3f4f4db8	0.80977964
18	0xbf6f79e7	-0.93545383
19	0xbfae8323	-1.363377
20	0x3f032524	0.5122855
21	0x3f058eb4	0.5217087
22	0x3e245842	0.16049293
23	0x3e73abb1	0.23795964
24	0x3f141eda	0.57859576
25	0xbf3037fa	-0.68835413
26	0xbeca3405	-0.39492813
27	0x3d4f9d1d	0.050686944
28	0xbf8bc731	-1.0920163
29	0xbf1ee903	-0.620743
30	0xbd865f39	-0.06561131
31	0x3f053e22	0.5204793
32	0xbf124d38	-0.57149076
33	0x3f8cfe44	1.1015096
34	0x3f23e6b4	0.640239
35	0x3fd8376e	1.6891916
36	0xbe9ae35f	-0.30251595
37	0xbf1cf4c1	-0.61310965
38	0x3f1ee762	0.6207181
39	0x3f81ddc6	1.0145805

fc2.bias f4 [2]
0	0x3de42ea0	0.111417055
1	0xbe75ac95	-0.23991616
