DDPG/cart_pole_critic.pth (torch_old, 402772 bytes, 7 tensors)

fcs1.weight f4 [256, 4]
0	0x3c7f05a2	0.015565308
1	0x3d8d6d44	0.069056064
2	0xbfc8682f	-1.5656794
3	0xbe8eaa05	-0.2786409
4	0xbca1db43	-0.019757872
5	0x3dc9e826	0.09858732
6	0x3f9f46b1	1.2443448
7	0x3f00574f	0.5013322
8	0x3d65ec6f	0.056133684
9	0x3d484d8b	0.048902076
10	0xbf6638d6	-0.89930475
11	0xbeee5ccd	-0.46555176
12	0xbe9801f1	-0.2968898
13	0xbd6f4e5f	-0.05842435
14	0xbf51eee5	-0.8200515
15	0x3d83faf1	0.06444348
16	0x3e5566d3	0.20840006
17	0x3dc9f1b2	0.09860553
18	0xbf7a3f86	-0.9775318
19	0xbe257d36	-0.16161045
20	0xbd4d6fd3	-0.050155472
21	0x3ee16420	0.44021702
22	0xbef56e8a	-0.47935897
23	0x3e905bd7	0.28195068
24	0x3bc0886e	0.0058756387
25	0xbc9db2ad	-0.019250238
26	0x3f10bbb4	0.5653641
27	0xbe67c23a	-0.22632685
28	0xbe0465bc	-0.12929434
29	0x3cae981b	0.021312764
30	0xbf3b28ce	-0.7310914
31	0x3ebea655	0.37236276
32	0xbe3ae895	-0.18252786
33	0xbe556283	-0.2083836
34	0xbf7d3904	-0.98915124
35	0xbe9eb5ee	-0.30998176
36	0xbefbc342	-0.49172407
37	0x3e864987	0.26227972
38	0x3f45b9b1	0.7723647
39	0x3e55019d	0.20801397
40	0x3e62a202	0.22132114
41	0xbe9f01f8	-0.3105619
42	0xbeca1f1d	-0.39476863
43	0xbebd44f9	-0.36966684
44	0xbb478dce	-0.0030449512
45	0x3ba08d81	0.004899681
46	0x3e2599ae	0.16171905
47	0xbc68a1fd	-0.014198777
48	0xbd7ff4bf	-0.062489267
49	0x3ddd0258	0.10791463
50	0x3f9eb619	1.2399322
51	0x3ed6ecfc	0.4197768
52	0x3e849b67	0.25899813
53	0xbe8316c6	-0.25603312
54	0x3ef3d08f	0.47620055
55	0xbea1d0b4	-0.3160454
56	0xbe3709c0	-0.17874813
57	0xbee3d6bd	-0.4449977
58	0xbfb63b86	-1.4236915
59	0xbeaa36a0	-0.332448
60	0x3c8fdf86	0.017562639
61	0x3e9cb42a	0.30606204
62	0xbf8420d8	-1.0322523
63	0x3e4adbf3	0.19810466
64	0x3ebb013f	0.36524388
65	0x3ee9eaee	0.4568705
66	0x3f8858c0	1.0652084
67	0x3e9e6b78	0.30941367
68	0x3dd125d0	0.1021229
69	0x3eae726c	0.34071672
70	0xbf3f7290	-0.74784184
71	0xbe4e6ddc	-0.20159096
72	0x3ea559f8	0.32295203
73	0x3ec053a4	0.37563813
74	0x3f82ac64	1.020886
75	0x3ec03996	0.37543935
76	0xbe503c43	-0.20335488
77	0xbebc13de	-0.36733907
78	0xbf2ec863	-0.68274516
79	0xbebc3e03	-0.3676606
80	0xbe1a7a00	-0.15085602
81	0x3dda2a39	0.106525846
82	0x3f54ebc0	0.83172226
83	0xbf13ebea	-0.5778185
84	0x3ca2e576	0.019884806
85	0xb9f64474	-0.00046971778
86	0xbf8abd33	-1.0838989
87	0xbdcb63bd	-0.09931133
88	0x3dc612d9	0.09671564
89	0xbe4e819b	-0.20166628
90	0x3e737326	0.23774394
91	0x3dd5de6b	0.104428135
92	0x3d9a1634	0.07523766
93	0x3e5312fb	0.20612709
94	0xbf3a9f19	-0.72899014
95	0xbe28363e	-0.16426942
96	0x3e99340d	0.29922524
97	0x3dac1a8c	0.08403501
98	0xbf8119fb	-1.0086054
99	0xbee63f49	-0.44970158
100	0x3e219fc0	0.15783596
101	0x3ea319d7	0.31855652
102	0xbf326aee	-0.6969441
103	0x3bedbc40	0.007255107
104	0xbec37d82	-0.38181692
105	0x3dab5be6	0.083671376
106	0xbf63bdf4	-0.8896172
107	0xbf0a160f	-0.5393991
108	0x3e56c043	0.2097178
109	0x3e2cff64	0.16894299
110	0x3f0a225b	0.5395867
111	0x3e0b53f4	0.13606244
112	0xbcbfcec3	-0.023414021
113	0x3e89289b	0.26788792
114	0x3e9b8dba	0.30381566
115	0x3db2349a	0.08701439
116	0xbd786061	-0.06063879
117	0x3daab024	0.083343774
118	0x3c6e0dd1	0.014529661
119	0x3d903153	0.07040658
120	0x3ea4de36	0.32200783
121	0x3e0dd236	0.1384972
122	0x3df2b919	0.11851711
123	0x3e6b03ac	0.2295062
124	0xbeb66f7f	-0.3563194
125	0xbea765b6	-0.32694787
126	0xbf4caa4a	-0.7994734
127	0xbeb8b33b	-0.36074242
128	0xbd4a4924	-0.04938616
129	0xbd949148	-0.07254273
130	0xbf3e84f4	-0.7442162
131	0x3d6a02c1	0.057131533
132	0xbe64fde6	-0.2236248
133	0x3c9adc79	0.018903958
134	0x3f9999ad	1.2000023
135	0xbe33e6e8	-0.17568552
136	0xbd3107f6	-0.043220483
137	0x3c589b8a	0.013220677
138	0x3e846dbf	0.2586498
139	0x3e8f3265	0.27968135
140	0x3e9d82b0	0.3076377
141	0xbcb73117	-0.022362275
142	0x3f901c94	1.1258721
143	0x3e58edee	0.21184513
144	0xbea7d38e	-0.3277859
145	0xbe706b17	-0.23478352
146	0x3ea64120	0.3247156
147	0xbe8a5fc7	-0.27026197
148	0xbe064bdb	-0.13114874
149	0xbe871766	-0.2638504
150	0xbf90f93d	-1.1326061
151	0xbeba986e	-0.3644442
152	0xbccbfa3b	-0.024899593
153	0x3dbedf40	0.09319925
154	0x3e0ca31c	0.13734096
155	0xbe85cc01	-0.26132205
156	0x3e92300e	0.28552288
157	0xbe51808a	-0.2045919
158	0xbf4963bf	-0.78667825
159	0xbe835cec	-0.2565683
160	0x3c3730cc	0.011181068
161	0x39a84b42	0.00032099528
162	0xbfa3a769	-1.2785465
163	0xbf074ab9	-0.5284839
164	0xbe7741fd	-0.24146266
165	0xbe531a86	-0.20615587
166	0xbf8f636d	-1.1202217
167	0xbe61ac96	-0.22038493
168	0xbe7bcd1d	-0.24589963
169	0xbd4db1b1	-0.050218288
170	0x3f8dec01	1.1087648
171	0xbe9a4173	-0.3012806
172	0x3eb051e3	0.34437475
173	0x3ea88cc4	0.32919896
174	0xbf16e41b	-0.5894181
175	0x3ee931d2	0.45545822
176	0x3e289f37	0.16466986
177	0xbe8318ae	-0.25604767
178	0x3f49beee	0.7880696
179	0xbea67f57	-0.32519028
180	0xbc7b7645	-0.015348022
181	0xbd26e9e4	-0.0407504
182	0x3f787b90	0.9706354
183	0x3d8ff1da	0.070285514
184	0xbc99a3fc	-0.018754952
185	0x3e43b610	0.1911242
186	0xbf475257	-0.77860016
187	0x3dab2f60	0.083586454
188	0xbe972cc9	-0.29526356
189	0x3d313d4b	0.043271344
190	0x3f9c3174	1.2202592
191	0x3e4930cc	0.19647521
192	0xbe7a8065	-0.24463041
193	0xbd32066b	-0.043463152
194	0xbf543cfa	-0.8290554
195	0xbe914598	-0.28373408
196	0xbec5408c	-0.38525808
197	0x3d40f39a	0.047107317
198	0xbf7f4123	-0.99708766
199	0xbe1db88c	-0.1540243
200	0x3c1e4ce9	0.0096618915
201	0x3ea52699	0.3225601
202	0xbf311d81	-0.69185644
203	0xbe641988	-0.22275364
204	0xbe4b5d38	-0.19859779
205	0x3f149e65	0.5805419
206	0x3f00d9c4	0.50332284
207	0x3e7aaf91	0.24481036
208	0x3e38133b	0.17976086
209	0xbcdf22a4	-0.027238198
210	0xbf8d446c	-1.1036506
211	0xbea78a90	-0.32722902
212	0x3c25be68	0.010116197
213	0x3bfa9627	0.007647294
214	0x3f720a8f	0.9454736
215	0x3dafbf18	0.0858137
216	0xbd93ee67	-0.07223206
217	0xbd2a4e35	-0.04157849
218	0x3f3f4148	0.74708986
219	0xbec7ee7d	-0.3904914
220	0xbdfdf527	-0.12400275
221	0x3ea4f673	0.32219276
222	0x3f1729ce	0.59048164
223	0x3b8d0d64	0.004304575
224	0xbe8c0173	-0.27344856
225	0x3e2eb71e	0.17062041
226	0xbf770af4	-0.9650109
227	0xbd9bddae	-0.076106414
228	0x3c60ecf2	0.013728367
229	0x3d8df0aa	0.06930669
230	0x3f78b094	0.97144437
231	0x3ee5f720	0.44915104
232	0xbc58866b	-0.0132156415
233	0x3d19f813	0.037590098
234	0x3dc6cb2b	0.0970672
235	0xbe26cd5a	-0.16289273
236	0x3e18b070	0.14911056
237	0xbdcf4437	-0.10120433
238	0xbf7ba211	-0.9829417
239	0x3e2557b2	0.16146734
240	0xbd076a88	-0.03306058
241	0x3ed79c71	0.42111543
242	0xbed0469b	-0.40678868
243	0x3e076fe6	0.1322628
244	0x3dccf1c2	0.10007049
245	0xbebfdfe4	-0.37475502
246	0x3f0fcbef	0.5617055
247	0xbeaa5bb2	-0.33273083
248	0x3b04b03a	0.002024664
249	0xbcbade16	-0.022810977
250	0xbf8eaca4	-1.1146436
251	0x3d30e28f	0.043184813
252	0x3e76fb10	0.2411921
253	0xbe945fc8	-0.28979325
254	0xbf8bfd7d	-1.0936733
255	0xbe8dea81	-0.27717975

fcs1.bias f4 [256]
0	0xbe82353e	-0.25431246
1	0xbee55df3	-0.4479824
2	0xbf010322	-0.50395405
3	0x3e0aa2e6	0.13538703
4	0xbebb3032	-0.36560208
5	0x3db59dd4	0.08867994
6	0xbd9eaf5a	-0.077482894
7	0x3c560f9f	0.013065248
8	0xbea67b79	-0.32516077
9	0xbe9780ef	-0.29590556
10	0xbe9c752f	-0.30558154
11	0xbcdd0c9d	-0.026983554
12	0xbecc5da6	-0.39915198
13	0xbe6eefc9	-0.23333658
14	0xbece9836	-0.40350503
15	0x3e556f87	0.20843326
16	0xbe6973c5	-0.22798069
17	0x3e6a6cc5	0.22893055
18	0xbeb61d95	-0.35569444
19	0xbee61a06	-0.4494173
20	0xbe29f01d	-0.16595502
21	0xbe24f39f	-0.16108559
22	0x3e7ac72c	0.2449004
23	0x3e6bb628	0.23018706
24	0xbf159ae0	-0.58439445
25	0x3e016b83	0.12638669
26	0xbeb52121	-0.35376838
27	0xbea7c348	-0.32766175
28	0xbe308dfb	-0.17241661
29	0x3e5d6382	0.2161999
30	0xbf183b0a	-0.59465086
31	0xbca238c9	-0.019802468
32	0x3e7b4858	0.24539316
33	0x3e423049	0.18963732
34	0x3eaa94f1	0.33316758
35	0xbe9cbad3	-0.30611286
36	0xbf03de79	-0.5151134
37	0x3f062fdf	0.52416795
38	0x3d55f575	0.05223604
39	0x3ee2014e	0.4414162
40	0xbed6545a	-0.4186123
41	0xbed2d3f8	-0.41177344
42	0xbb902120	-0.00439848
43	0xbf26bbbe	-0.6513022
44	0x3d879498	0.06620139
45	0x3e99596a	0.2995103
46	0xbcdd52f5	-0.027017096
47	0xbe6f0bab	-0.23344295
48	0x3e8afe7a	0.27147275
49	0xbee1efac	-0.44128168
50	0x3ed119c1	0.4083996
51	0xbf319b8a	-0.6937796
52	0xbf12dfae	-0.5737256
53	0xbe396491	-0.1810477
54	0x3dc82a2c	0.09773669
55	0xbe49bb5d	-0.1970038
56	0x3e3db818	0.18527257
57	0xbeb9ca59	-0.36287192
58	0xbd1c3bc3	-0.03814293
59	0xbe83c8b6	-0.25739068
60	0x3c473beb	0.012160282
61	0x3e1852ec	0.14875382
62	0x3e8444c1	0.25833705
63	0xbeb1f4b7	-0.34757015
64	0xbd78fff5	-0.060790975
65	0xbed95cee	-0.42453712
66	0xbf0e3e24	-0.5556357
67	0x3e086e25	0.13323267
68	0xbdadd397	-0.08487623
69	0xbd2619fa	-0.040552117
70	0xbe7296cc	-0.23690337
71	0xbe653965	-0.22385176
72	0x3dcef71a	0.10105725
73	0xbf1e13b2	-0.617488
74	0xbe58d994	-0.2117675
75	0x3c9003fc	0.017580025
76	0xbdeb41c0	-0.1148715
77	0xbe17cc35	-0.14823993
78	0x3e8eb19f	0.2786989
79	0x3e5fc7b6	0.21853527
80	0xbf0a65f2	-0.54061806
81	0x3dd06f24	0.101774484
82	0xbf0487d6	-0.5176977
83	0xbf4429c1	-0.7662621
84	0x3e09326f	0.13398145
85	0xbdd364d0	-0.10321963
86	0xbeb38d44	-0.35068715
87	0xbf15a202	-0.5845033
88	0xbe067717	-0.13131367
89	0x3e6caef9	0.23113622
90	0xbef2de62	-0.4743529
91	0xbf140b36	-0.57829607
92	0x3d0d1a8a	0.034449138
93	0xbececa6f	-0.4038882
94	0xbf06e6d3	-0.5269596
95	0xbe9cbc59	-0.30612448
96	0x3d47bf20	0.048766255
97	0xbf11ac95	-0.56903964
98	0xbefb9bfc	-0.49142444
99	0x3cafd31b	0.021462968
100	0xbf1e4945	-0.6183055
101	0x3b93e8f6	0.004513855
102	0xbf403d52	-0.7509357
103	0xbeeda72e	-0.4641661
104	0x3e458038	0.19287193
105	0xbf015b47	-0.50529903
106	0xbeec9f29	-0.4621518
107	0x3ea1be02	0.31590277
108	0x3e386be7	0.18009911
109	0x3e900fdf	0.2813711
110	0xbe81953e	-0.25309175
111	0xbe90ced7	-0.28282806
112	0xbce50d41	-0.027960422
113	0xbd2bddd2	-0.04195959
114	0x3ec94970	0.3931384
115	0xbf3b4891	-0.731576
116	0xbe004f04	-0.12530142
117	0xbcc3e4fe	-0.023912903
118	0xbec76a74	-0.38948405
119	0xbeda1cc1	-0.42600062
120	0x3e30d627	0.17269193
121	0xbeef3b48	-0.46724916
122	0x3e190c6a	0.14946142
123	0xbe6597f3	-0.22421245
124	0x3e2834f1	0.16426446
125	0xbed6dc7b	-0.41965088
126	0x3c92a6c1	0.01790178
127	0xbf078eac	-0.52952075
128	0xbf1a6dc8	-0.6032376
129	0x3e21d029	0.15802063
130	0x3e8fb605	0.28068557
131	0xbf155e03	-0.58346575
132	0xbea0a3b9	-0.3137491
133	0x3ec21680	0.3790779
134	0xbe7f3b95	-0.24925072
135	0x3e06fbc4	0.13181978
136	0xbf1421bd	-0.5786398
137	0xbe8a05c3	-0.2695752
138	0xbf1cb608	-0.6121526
139	0x3ea307f3	0.31842002
140	0xbd7547c8	-0.05988291
141	0xbed822c1	-0.42214015
142	0xbe236939	-0.15958108
143	0xbd2a01dd	-0.041505683
144	0xbe77582b	-0.24154727
145	0xbeed75fc	-0.46379077
146	0xbe0f6c82	-0.14006236
147	0x3e83b620	0.25724888
148	0xbed9b3b1	-0.42519906
149	0xbefe0717	-0.49614784
150	0xbdf0fbf9	-0.1176681
151	0x3caa60c1	0.020798089
152	0xbe86cec1	-0.26329616
153	0xbe9e06d2	-0.30864578
154	0xbe3f2318	-0.18665731
155	0xbece8c53	-0.40341434
156	0xbe01fdee	-0.12694523
157	0xbe120593	-0.14259939
158	0x3e8dad66	0.27671355
159	0xbf29cc14	-0.66327024
160	0xbf03762b	-0.51352185
161	0xbf0a4547	-0.5401196
162	0xbe195496	-0.14973673
163	0x3ee98edd	0.4561681
164	0x3ee6a7fc	0.45050037
165	0xbf2c2380	-0.6724167
166	0xbe8ac051	-0.2709985
167	0x3e78899c	0.24271244
168	0x3e9c7d52	0.30564362
169	0x3eb68ff9	0.35656717
170	0xbe3cc455	-0.1843427
171	0xbf198bb6	-0.59978807
172	0xbde28616	-0.11060731
173	0xbe0ba4c8	-0.13637078
174	0xbe6a8829	-0.22903503
175	0x3c4fa519	0.01267364
176	0x3e08fe5b	0.13378279
177	0x3e96f379	0.2948263
178	0x3e82b54c	0.25528944
179	0xbef859c8	-0.48505998
180	0xbee888ef	-0.45416972
181	0xbe84e39c	-0.25954902
182	0xbf15cffb	-0.5852048
183	0x3ed5d914	0.4176718
184	0xbe97d3cd	-0.2965378
185	0xbec2bb81	-0.3803368
186	0xbe897433	-0.26846465
187	0xbedc094e	-0.4297585
188	0xbcd7895a	-0.026310612
189	0xbf3781b5	-0.7168229
190	0xbf23f0ce	-0.64039314
191	0xbf63ad30	-0.8893614
192	0x3df58406	0.11988072
193	0xbe6323b6	-0.22181591
194	0xbe7cf0bb	-0.24701206
195	0xbd64b32e	-0.05583494
196	0x3ee80654	0.45317328
197	0x3ca52242	0.020157937
198	0xbe916fe3	-0.28405675
199	0xbca6e1ac	-0.02037128
200	0xbe70bfb4	-0.23510629
201	0x3c570cb9	0.013125592
202	0xbef8615c	-0.4851178
203	0x3d2dd2f2	0.0424375
204	0x3e1d0469	0.15333714
205	0xbefcd76f	-0.49383113
206	0x3ecab584	0.3959161
207	0x3ecef463	0.40420827
208	0xbecd003f	-0.4003925
209	0xbe78909a	-0.24273911
210	0xbd162a73	-0.036661576
211	0xbead1f65	-0.33813015
212	0x3e56e510	0.20985818
213	0xbeb66011	-0.35620168
214	0xbe19e300	-0.15028
215	0xbf2367a3	-0.6383001
216	0xbf084665	-0.53232414
217	0x3d338cac	0.043835327
218	0xbdcaf122	-0.09909274
219	0xbf18ae8c	-0.5964134
220	0xbeaf5b84	-0.34249508
221	0xbf319dcd	-0.6938141
222	0xbeb23e92	-0.34813362
223	0xbe4c7749	-0.19967379
224	0xbdae6edd	-0.08517239
225	0xbe86d86a	-0.26336986
226	0x3e9a3a80	0.30122757
227	0x3ea302e4	0.31838143
228	0x3eafe183	0.3435174
229	0xbedff50f	-0.43741652
230	0x3e9adaa0	0.30244923
231	0x3e735f7e	0.23766896
232	0xbe3951ed	-0.18097658
233	0xbf35823f	-0.70901865
234	0x3dd3c6d8	0.10340661
235	0x3ecd5a23	0.4010783
236	0xbf220abe	-0.6329764
237	0xbe445ed4	-0.19176799
238	0x3df1c358	0.11804837
239	0xbeda5395	-0.42641893
240	0xbd37ede8	-0.04490462
241	0x3d515c23	0.05111326
242	0x3d03e084	0.032196537
243	0x3eae53e0	0.34048367
244	0x3ed4bad9	0.41548803
245	0x3ec37bdb	0.38180432
246	0xbec2bed1	-0.38036206
247	0x3efb3538	0.4906404
248	0xbebd2061	-0.36938766
249	0xbe36e3bb	-0.1786031
250	0xbec5681a	-0.38555986
251	0xbe0eb6ff	-0.13936995
252	0x3e9b87a4	0.30376923
253	0xbd62ee15	-0.055402834
254	0x3e23aa66	0.1598297
255	0x3e874e21	0.26426795

fc2.weight f4 [256, 257]
0	0xbeb45b14	-0.35225737
1	0x3e7233e4	0.23652607
2	0x3dceab11	0.10091222
3	0x3c981e00	0.018568993
4	0xbe67e6ce	-0.22646639
5	0xbdcfd7ec	-0.10148606
6	0x3c3fdcc3	0.011710349
7	0x3dd6d797	0.10490339
8	0xbe607f53	-0.2192357
9	0x3d9ee48e	0.07758437
10	0xbe87d1a8	-0.26527143
11	0x3d93fd61	0.072260626
12	0x3df961fe	0.12176894
13	0xbe13ff65	-0.14452894
14	0xbd5e3e17	-0.054258432
15	0xbe605012	-0.21905544
16	0xbe2e825d	-0.17041917
17	0xbdfdc7f1	-0.123916514
18	0xbe4c85f4	-0.19972974
19	0xbed88390	-0.42287874
20	0x3e6bacd3	0.23015146
21	0xbd6da48b	-0.05801825
22	0x3c0b1d05	0.0084908055
23	0xbdb06c19	-0.08614368
24	0xbee6b722	-0.45061594
25	0xbe2cc298	-0.16871107
26	0xbdf20ffb	-0.11819454
27	0xbe25b473	-0.16182117
28	0x3dba9eb1	0.09112299
29	0x3c22e5e7	0.009942508
30	0xbe4b00db	-0.19824545
31	0xbe11c729	-0.1423613
32	0xbd27c29c	-0.04095708
33	0xbd97bf69	-0.074095555
34	0x3cbf4802	0.023349766
35	0xbd8f4ff9	-0.069976754
36	0xbe867b4b	-0.2626594
37	0xbe0214a1	-0.12703182
38	0x3dea56d5	0.11442343
39	0xbd90f90a	-0.070787504
40	0xbe5ed4f2	-0.2176092
41	0x3e4d5ceb	0.20054977
42	0x3ad04f95	0.0015892858
43	0xbea84213	-0.3286291
44	0xbe242dd0	-0.16033101
45	0x3d7e0b19	0.062022302
46	0xbeb1681a	-0.34649736
47	0x3e4e82f0	0.20167136
48	0xbdd99e9f	-0.10625958
49	0xbe68a851	-0.22720458
50	0xbde2789f	-0.11058163
51	0xbd3d1ca3	-0.04616989
52	0xbea609b9	-0.32429293
53	0x3ee2b089	0.4427531
54	0xbd2c9cca	-0.042141713
55	0x3ea5d23c	0.3238696
56	0xbcdc9d58	-0.026930496
57	0x3db02443	0.086006664
58	0x3e59780c	0.212372
59	0xbcda3db3	-0.026640749
60	0xbc97b94f	-0.01852098
61	0xbdbe2d3d	-0.09285972
62	0xbe500fb3	-0.20318489
63	0xbf8fb9d5	-1.1228586
64	0x3cd3b325	0.025842259
65	0x3d14d5d8	0.03633675
66	0xbe260efa	-0.1621665
67	0xbe27e8f5	-0.1639746
68	0x3d05e6e1	0.032690886
69	0xbe394a9e	-0.1809487
70	0x3e36ed39	0.17863931
71	0x3cc2627b	0.0237286
72	0xbd982ade	-0.07430051
73	0xbf167644	-0.5877421
74	0xbf142e57	-0.5788321
75	0x3e679f19	0.22619285
76	0x3d39f37a	0.045398213
77	0xbf894c93	-1.0726494
78	0x3d6fcdf9	0.05854604
79	0xbb5accf2	-0.0033386317
80	0xbebc40d1	-0.367682
81	0xbcef61b9	-0.029221402
82	0xbf2c9a53	-0.6742298
83	0xbe16a9f1	-0.14713265
84	0xbe6d2344	-0.23157984
85	0x3d0c451b	0.03424559
86	0x3da21e18	0.07915896
87	0x3e139e42	0.1441584
88	0x3ddce333	0.10785522
89	0xbdf8d0c9	-0.121491976
90	0xbd927803	-0.07151797
91	0xbe686c9c	-0.22697681
92	0xbdb09cf5	-0.08623687
93	0xbe9685fe	-0.29399103
94	0xbe97711f	-0.29578492
95	0xbd9d8ca8	-0.07692844
96	0xbe4f2e1a	-0.2023243
97	0x3d0f3cc2	0.034970053
98	0xbd6180d1	-0.05505449
99	0xbdc5afe0	-0.09652686
100	0xbe07ac11	-0.13249232
101	0xbdd1d762	-0.10246159
102	0x3dc78b36	0.09743349
103	0xbe9fb5a7	-0.31193277
104	0x3e0f9f5f	0.14025639
105	0x3e3da8b0	0.1852138
106	0x3e86add6	0.263045
107	0xbdfcea34	-0.12349358
108	0xbe414e88	-0.18877614
109	0x3cb7c1e7	0.022431327
110	0xbdd19b60	-0.102347136
111	0x3e11d87a	0.14242736
112	0x3d9ea0d6	0.07745521
113	0x3cd73cbc	0.026274078
114	0xbd88c722	-0.066786066
115	0x3e33260e	0.17494985
116	0xbd8fcc08	-0.07021338
117	0x3c2d1b8c	0.01056565
118	0xbe72648a	-0.23671165
119	0x3d8b0d56	0.06789653
120	0xbe094849	-0.13406481
121	0xbe2fdffd	-0.17175288
122	0xbdd2e5d0	-0.102977395
123	0xbe93c2e0	-0.28859615
124	0x3961ee16	0.00021546366
125	0x3e0b6266	0.13611755
126	0x3c992ea6	0.018699002
127	0x3d8dfccb	0.06932982
128	0x3ca69fd4	0.020339884
129	0xbd5947eb	-0.053047102
130	0xbd004487	-0.031315353
131	0xbd8db706	-0.069196746
132	0x3e3ba27f	0.18323706
133	0x3aa8bc89	0.0012873571
134	0x3e253ab7	0.16135679
135	0xbd93e5a3	-0.07221534
136	0xbdb29629	-0.08720047
137	0xbe634ac0	-0.22196484
138	0xbeb418f3	-0.35175285
139	0x3db4175c	0.08793518
140	0x3a5dbfdd	0.0008459071
141	0x3dd00650	0.10157454
142	0xbdbfaee0	-0.09359527
143	0xbd1d0657	-0.038336124
144	0xbd704c0c	-0.058666274
145	0x3e627d4e	0.22118112
146	0xbdfdb65b	-0.12388297
147	0xbda3eee7	-0.080045514
148	0x3d8957ee	0.067062244
149	0xbd03245e	-0.032017104
150	0xbd4cfbb0	-0.050044715
151	0x3d4b8dff	0.049695965
152	0xbc9691b2	-0.01838002
153	0x3d8875c6	0.066630885
154	0xbe87132d	-0.26381817
155	0x3ef116d1	0.4708772
156	0x3ca2c766	0.019870471
157	0xbd0e947f	-0.034809586
158	0xbdf3e9bd	-0.119098164
159	0x3e092003	0.13391118
160	0x3ddbf38d	0.10739813
161	0xbe5fc794	-0.21853477
162	0x3d9203f6	0.07129662
163	0xbe4011b5	-0.18756755
164	0xbdb60bca	-0.08888967
165	0x3d65647c	0.056004032
166	0xbe5e7e3d	-0.21727844
167	0x3b1a5d9b	0.0023554328
168	0xbd00deea	-0.031462587
169	0xbcf1d5fc	-0.029520981
170	0xbf2d7b62	-0.6776639
171	0xbe53548f	-0.20637725
172	0x3ddc6fe5	0.1076353
173	0xbda4cbc4	-0.08046678
174	0x3bf3a046	0.0074348776
175	0xbcc958ab	-0.024578413
176	0xbc0aeec6	-0.00847978
177	0xbd1b437f	-0.037906166
178	0xbcf62df5	-0.03005121
179	0xbe661233	-0.2246788
180	0xbf6d3a57	-0.92667145
181	0x3f1610e5	0.5861953
182	0xbe56277b	-0.20913498
183	0xbdf67282	-0.120335594
184	0xbd95da63	-0.073170446
185	0xbc342287	-0.01099456
186	0xbe02b1c9	-0.12763132
187	0x3ebc711e	0.36805052
188	0xbed691e1	-0.41908172
189	0x3f1d1b6e	0.6136998
190	0xbeccb0f0	-0.39978743
191	0xbf5d4978	-0.8644023
192	0x3cc9a2de	0.024613794
193	0x3dc1613d	0.09442375
194	0xbe80fbb3	-0.2519203
195	0x3c5da39c	0.013527777
196	0xbe0f08d1	-0.13968207
197	0xbf3abaf2	-0.72941506
198	0xbe232425	-0.15931757
199	0xbe038c9c	-0.12846607
200	0xbd990eb8	-0.074735105
201	0x3eb33fdf	0.35009667
202	0x3d241d41	0.04006696
203	0xbda0c97e	-0.078509316
204	0x3cd8e672	0.026477072
205	0xbdf15423	-0.11783626
206	0xbd1f5323	-0.038897645
207	0xbda129da	-0.07869311
208	0x3ec833ec	0.39102113
209	0xbc859ecc	-0.016311072
210	0x3e8c8d9e	0.27451795
211	0xbe7adc50	-0.24498105
212	0xbd948c24	-0.07253292
213	0x3e07e70d	0.13271733
214	0xbd933438	-0.07187694
215	0x3df2e5f4	0.11860266
216	0xbf0e3040	-0.55542374
217	0xbd3f0a63	-0.046640765
218	0x3e52d2c4	0.20588213
219	0xbea9f96d	-0.3319811
220	0xbde37902	-0.11107065
221	0xbec600cd	-0.38672486
222	0xbe22c094	-0.15893775
223	0xbdd0ffe2	-0.10205056
224	0xbcf7e3d7	-0.03026001
225	0xbe8b08db	-0.27155194
226	0xbe491c5a	-0.19639722
227	0x3d55b4b2	0.052174278
228	0xb989564e	-0.00026194978
229	0xbdbc15b3	-0.09183826
230	0x3d629910	0.055321753
231	0xbe1ddcbc	-0.15416235
232	0x3be5cfd1	0.007013299
233	0xbcd288c8	-0.025699988
234	0xbe214822	-0.15750173
235	0xbe3988f8	-0.18118656
236	0xbf11d212	-0.56961167
237	0xbd077742	-0.033072717
238	0xbc7a0a93	-0.01526131
239	0xbe5b1544	-0.21394831
240	0x3ebc66cb	0.36797175
241	0x3cf7a90b	0.030231973
242	0xbe1afb10	-0.15134835
243	0xbe6b91fe	-0.2300491
244	0xbd94fa75	-0.072743334
245	0xbc82d86a	-0.015972335
246	0xbeb5802f	-0.3544936
247	0xbd1f2470	-0.03885311
248	0xbe08a78a	-0.13345161
249	0xbdfc819e	-0.1232941
250	0x3dda145d	0.10648415
251	0xbe493846	-0.19650373
252	0x3d01cdb1	0.031690303
253	0x3c2f1772	0.010686742
254	0xbd8fc6eb	-0.070203625
255	0xbd818435	-0.063240446

fc2.bias f4 [256]
0	0xbd8caeea	-0.068693
1	0x3e42a0b6	0.19006619
2	0x3e8fa3ac	0.2805456
3	0xbe898318	-0.2685783
4	0xbd96cd32	-0.07363357
5	0xbd92dfe2	-0.071716085
6	0x3e2d2643	0.16909127
7	0x3c9fbd51	0.019499453
8	0xbe72c62a	-0.23708406
9	0xbe16cbe7	-0.1472622
10	0xbd8987d4	-0.0671536
11	0xbe84df46	-0.25951594
12	0xbc646f22	-0.013942512
13	0x3cbf5021	0.023353638
14	0x3d300041	0.042968992
15	0x3dc41e2b	0.095760666
16	0x3d692ca7	0.05692735
17	0x3c408aed	0.0117518725
18	0xbe18fed3	-0.14940958
19	0xbe664d83	-0.22490506
20	0x3e966e17	0.29380867
21	0xbdec990f	-0.11552631
22	0xbb319c3f	-0.0027101187
23	0xbde46151	-0.11151374
24	0x3b8303e7	0.003998268
25	0xbe8bd3a1	-0.27309898
26	0x3d10ef3f	0.035384413
27	0xbde16435	-0.11005441
28	0x3d15146d	0.036396433
29	0xbd30d06c	-0.043167517
30	0x3e74d781	0.23910333
31	0xbde4626f	-0.11151587
32	0xbca5f68a	-0.02025916
33	0xbcf6cccb	-0.03012695
34	0xbab16a09	-0.0013535629
35	0xbc69b77e	-0.014264939
36	0xbe2824fc	-0.16420358
37	0xbdea1817	-0.11430376
38	0x3e7e00f9	0.24805059
39	0xbcff131a	-0.031137038
40	0x3e17a0cd	0.14807434
41	0x3df2f5be	0.11863278
42	0xbe15e50e	-0.14638159
43	0xbd6cb521	-0.057789925
44	0xbdf476e2	-0.119367376
45	0x3e8c409d	0.27393046
46	0xbdc6ea94	-0.09712711
47	0x3e8c357d	0.27384558
48	0xbce9337f	-0.028466938
49	0x3cd05c92	0.025434766
50	0xbe4df7bf	-0.20114039
51	0xbd8213e9	-0.06351454
52	0x3e5a4558	0.21315515
53	0xbbe9153e	-0.007113128
54	0xbd2fedf4	-0.04295154
55	0xbd876ef3	-0.06612959
56	0xbe17345a	-0.14766064
57	0x3cbdd3c0	0.02317226
58	0xbde96837	-0.113968305
59	0x3c89ee48	0.016837254
60	0xbe11ba1f	-0.14231156
61	0xbe21aafd	-0.15787883
62	0xbd66b669	-0.056326304
63	0x3d56340a	0.052295722
64	0xbe802282	-0.25026327
65	0x3cdf9585	0.027292976
66	0xbde1985b	-0.110153876
67	0x3e2aa805	0.16665657
68	0x3cad9437	0.021188838
69	0xbdf95fc4	-0.12176469
70	0xbe6039db	-0.2189707
71	0xbe88eefc	-0.2674483
72	0xbe2acbda	-0.16679326
73	0xbdc81792	-0.09770121
74	0x3d4afe5c	0.049558982
75	0xbe844b6c	-0.25838792
76	0xbebd88a8	-0.37018323
77	0xbe260bca	-0.16215435
78	0xbe399d97	-0.18126522
79	0xbe3000d3	-0.17187814
80	0xbe395bdf	-0.18101452
81	0x3e98bb33	0.29830322
82	0xbeb10687	-0.34575292
83	0xbd38daa8	-0.0451304
84	0xbe3c56b6	-0.18392453
85	0xbec36ee4	-0.3817054
86	0x3bc7a5e0	0.006092772
87	0x3cdf00db	0.027222088
88	0xbce657ea	-0.028118093
89	0x3d4dd392	0.050250597
90	0xbe26e89c	-0.16299671
91	0xbdd4098d	-0.10353384
92	0xbde5cfc1	-0.112212665
93	0xbc63971d	-0.013891009
94	0xbdc3da00	-0.095630646
95	0x3d0e87a8	0.03479734
96	0xbe7fb731	-0.24972226
97	0xbe574719	-0.21023215
98	0x3d098c88	0.033581287
99	0xbdb2b0d8	-0.087251365
100	0x3d0f792c	0.035027668
101	0xbc9b5d70	-0.018965453
102	0x39c91e6c	0.00038360374
103	0xbd1829d1	-0.037149254
104	0xbe0ed34e	-0.13947794
105	0xbccd1300	-0.025033474
106	0xbe3955ee	-0.18099186
107	0xbe941a48	-0.289263
108	0xbe1e70cf	-0.1547272
109	0xbdbf4072	-0.09338464
110	0x3d59cff8	0.05317685
111	0xbda1ba89	-0.07896907
112	0x3e9d7601	0.30754092
113	0xbe07fbe0	-0.13279676
114	0xbde0649b	-0.10956689
115	0xbc27978b	-0.010229002
116	0x3cd458d8	0.02592127
117	0xbe7afe48	-0.24511063
118	0xbdd26eeb	-0.10275062
119	0x3c91cdf5	0.017798403
120	0xbe0650e9	-0.13116802
121	0xbe105a0c	-0.1409685
122	0x3d819036	0.06326334
123	0xbd24287f	-0.040077683
124	0xbe3e2ff1	-0.18572976
125	0xbe2a4c85	-0.16630752
126	0xbdf7c47e	-0.12098025
127	0x3d8a8f0c	0.06765565
128	0xbd018f25	-0.031630654
129	0xbef1cc8f	-0.47226378
130	0xbe4b3c8d	-0.19847317
131	0xbe9615e1	-0.29313567
132	0xbe31eb6e	-0.17374966
133	0x3db3384e	0.08750974
134	0xbe82c73a	-0.25542623
135	0xbd46aa61	-0.04850233
136	0x3e94c1b0	0.29054022
137	0xbdce6d6b	-0.100794636
138	0x3e38f8fe	0.18063733
139	0xbea9c028	-0.33154416
140	0xbe80ba03	-0.25141916
141	0x3e49cb9c	0.19706577
142	0xbe03c20b	-0.1286699
143	0xbc0375d4	-0.008023698
144	0x3e5178ee	0.20456287
145	0xbe178add	-0.14799066
146	0xbdf47539	-0.11936421
147	0x3e75479e	0.23953101
148	0x3ea10020	0.31445408
149	0xbe6a0d2f	-0.22856592
150	0xbe61fb43	-0.22068505
151	0xbe17bda1	-0.14818431
152	0xbe57aae7	-0.21061288
153	0xbe8f6a8a	-0.2801097
154	0xbdae3fc4	-0.08508256
155	0xbe7cb2b0	-0.24677539
156	0xbe24ce33	-0.16094284
157	0x3d841dc0	0.06450987
158	0x3d4e620b	0.05038647
159	0x3e70d662	0.2351928
160	0xbe323597	-0.17403255
161	0xbec55d3b	-0.38547692
162	0xbe5ce0bb	-0.21570103
163	0xbdd3154a	-0.10306795
164	0x3e09b030	0.13446116
165	0xbe9d7a54	-0.3075739
166	0xbe802a96	-0.2503249
167	0xbcd4a771	-0.025958749
168	0xbbec2b9a	-0.007207346
169	0x3e252761	0.16128303
170	0x3c2e30b4	0.010631729
171	0x3e2e97f6	0.17050156
172	0x3c488da9	0.012240806
173	0x3c01c55c	0.007920589
174	0x3e9a0585	0.30082336
175	0x3cc93963	0.024563497
176	0x3db75e6a	0.08953555
177	0xbe6c8b2b	-0.23099963
178	0x3e4a0d0c	0.1973154
179	0x3df779ca	0.12083776
180	0xbd2be427	-0.04196563
181	0x3d338631	0.043829147
182	0xbeba8c16	-0.36435002
183	0xbe66cb26	-0.22538432
184	0xbe3c8005	-0.1840821
185	0x3e63278b	0.22183053
186	0xbe71d51a	-0.23616448
187	0xbead013c	-0.33790004
188	0xbe328df6	-0.17436966
189	0xbdd079c2	-0.101794735
190	0xbd2b33f9	-0.04179761
191	0x3d46342c	0.0483896
192	0x3df479ad	0.1193727
193	0x3d273dcc	0.04083042
194	0xbe465329	-0.1936766
195	0x3e4b39e7	0.19846307
196	0xbe963cbe	-0.29343218
197	0x3ea1bb61	0.3158827
198	0xbe12c2d6	-0.14332137
199	0x3cc34bcd	0.023839856
200	0x3d83356d	0.064066745
201	0xbe2d7f04	-0.16942984
202	0xbdf9dfaf	-0.122008674
203	0xbd937094	-0.07199207
204	0xbe450ed8	-0.19243944
205	0xbdc10327	-0.094244294
206	0xbe2147f3	-0.15750103
207	0xbe1f0355	-0.15528615
208	0xbe65b6d0	-0.22433019
209	0xbe0171f3	-0.12641124
210	0x3d1fb509	0.038991008
211	0xbe41a2b3	-0.18909721
212	0x3d835070	0.064118266
213	0x3cbf21d2	0.023331556
214	0xbe0b9f14	-0.13634902
215	0xbdaf0f8b	-0.085478865
216	0xbe831d46	-0.2560827
217	0xbdd7438a	-0.10510929
218	0xbe132db1	-0.14372899
219	0xbdd5e4d7	-0.10444038
220	0xbd9be596	-0.076121494
221	0xbd583ecc	-0.052794263
222	0x3b266de3	0.0025395087
223	0xbdbc9ff5	-0.09210197
224	0xbd878e85	-0.0661898
225	0xbdf1cfbf	-0.118072025
226	0xbe3d39bf	-0.1847906
227	0xbe946110	-0.28980303
228	0xbe1344d5	-0.14381726
229	0xbd8fb523	-0.07016971
230	0xbe6a032b	-0.22852771
231	0xbe84871f	-0.2588434
232	0xbe0fe2fd	-0.14051433
233	0xbcc868f8	-0.024464116
234	0xbdbcc498	-0.09217185
235	0xbdd2bb01	-0.102895744
236	0xbe0378da	-0.1283907
237	0x3e5ae68a	0.21377006
238	0xbd06bd30	-0.032895267
239	0xbe835e95	-0.25658098
240	0xbdf28680	-0.1184206
241	0x3c93a384	0.018022306
242	0xbdf1ce2f	-0.118069045
243	0x3e59de81	0.21276285
244	0xbe27deff	-0.1639366
245	0xbdef80fd	-0.116945244
246	0x3d17eb6f	0.03708976
247	0xbe9c9bc9	-0.30587605
248	0xbe858867	-0.2608063
249	0x3e21d178	0.15802562
250	0xbde21a4c	-0.11040172
251	0x3d348b10	0.044077933
252	0xbd8f84ee	-0.07007776
253	0x3e885a82	0.26631552
254	0xbcc6a6bd	-0.024249429
255	0xbe67addd	-0.22624917

fc3.weight f4 [128, 256]
0	0xbe2f7890	-0.17135835
1	0xbf78c7a2	-0.97179615
2	0xbf9a4be3	-1.2054409
3	0xbe880ef5	-0.2657391
4	0x3e744ef7	0.23858248
5	0xbe1a15eb	-0.15047424
6	0xbe151f99	-0.14562835
7	0x3e193290	0.14960694
8	0xbe0b961f	-0.13631485
9	0xbef047a1	-0.4692965
10	0xbef430ef	-0.47693583
11	0xbd04f941	-0.03246427
12	0xbd74ca3d	-0.059763182
13	0xbe6d0938	-0.23148048
14	0xbea67546	-0.32511348
15	0xbe46e4cc	-0.19423217
16	0xbea3f002	-0.3201905
17	0x3d12221b	0.035677057
18	0x3e499782	0.19686702
19	0xbddf3a46	-0.10899787
20	0xbf3a2429	-0.72711426
21	0xbe4df96e	-0.20114681
22	0xbe1abd13	-0.15111189
23	0xbd895da1	-0.067073114
24	0xbe951f49	-0.2912543
25	0xbe170776	-0.1474894
26	0xbd2dec08	-0.042461425
27	0xbe9bb2c9	-0.3040984
28	0xbdaa7196	-0.08322446
29	0xbdc563de	-0.09638189
30	0xbf4079e1	-0.7518597
31	0xbdb0359d	-0.08603976
32	0xbeedeefe	-0.464714
33	0xbec1ce0f	-0.37852523
34	0xbe245437	-0.1604775
35	0xbe2ffdb3	-0.17186622
36	0xbd27774f	-0.040885266
37	0xbe8191f5	-0.2530667
38	0xbe086165	-0.13318403
39	0xbe8a4b38	-0.27010512
40	0xbea85c1c	-0.32882774
41	0xbe81ec3c	-0.25375545
42	0xbe8c379d	-0.2738618
43	0xbe8a47c4	-0.27007878
44	0x3c2cbdd0	0.010543302
45	0xbf92a546	-1.1456687
46	0x3e7bcffd	0.2459106
47	0xbf12b1ce	-0.5730256
48	0xbdd2deed	-0.10296426
49	0xbdca8ddd	-0.098903395
50	0xbe8e369a	-0.27776033
51	0xbea45f65	-0.3210403
52	0xbea7dec9	-0.3278716
53	0x3dff8e51	0.124783166
54	0xbe60cf97	-0.21954189
55	0xbed2444f	-0.4106774
56	0xbddb6567	-0.107127
57	0xbe68aee9	-0.22722973
58	0xbea811c2	-0.32826048
59	0x3e41f50f	0.18941139
60	0xbeac5d00	-0.33664703
61	0xbe624814	-0.22097808
62	0xbda099cf	-0.07841837
63	0xbe256e0c	-0.16155261
64	0xbdcf08b4	-0.10109082
65	0xbdce49fd	-0.10072706
66	0x3d6db1bc	0.05803083
67	0xbe8b8f09	-0.27257565
68	0xbdd03cac	-0.10167822
69	0xbe7ab271	-0.24482132
70	0x3ddeb0c7	0.10873561
71	0xbde385b5	-0.11109487
72	0xbebdc05c	-0.3706082
73	0x39fb0b65	0.0004788294
74	0xbe831c03	-0.2560731
75	0xbec2e545	-0.38065544
76	0xbe086cd8	-0.1332277
77	0xbec04d53	-0.37558994
78	0xbda77d73	-0.081782244
79	0xbd948074	-0.07251063
80	0x3e2d84c5	0.16945179
81	0xbf534e69	-0.8254152
82	0xbdced7e6	-0.10099773
83	0xbe05d797	-0.13070522
84	0xbe5f194f	-0.21786998
85	0xbb9fce9a	-0.0048769237
86	0xbeb3e93f	-0.3513889
87	0xbe14f9cc	-0.14548415
88	0xbeaf8217	-0.34278938
89	0xbe06fbf4	-0.1318205
90	0xbe6d0357	-0.23145805
91	0xbe9c1b3a	-0.30489522
92	0xbe4fff10	-0.20312142
93	0xbd5980b1	-0.053101245
94	0xbe0d8db2	-0.13823584
95	0xbe4b06c4	-0.198268
96	0xbea4d078	-0.321903
97	0xbe7cb78e	-0.24679396
98	0xbe57b300	-0.21064377
99	0xbdeedfcd	-0.1166378
100	0xbeba2d71	-0.36362794
101	0xbe460a65	-0.19339903
102	0x3d43caf0	0.04780096
103	0xbdfe78c7	-0.1242538
104	0x3dcb3771	0.09922684
105	0xbe0df555	-0.13863118
106	0xbc8d57cc	-0.017253779
107	0xbe688623	-0.22707419
108	0xbf0c2a7f	-0.54752344
109	0xbeae13e6	-0.33999556
110	0xbee9b35f	-0.45644662
111	0xbe87a1f5	-0.2649075
112	0xbf1f64c9	-0.6226316
113	0xbef5d207	-0.480118
114	0xbe6ce3bd	-0.2313375
115	0xbe619f78	-0.22033489
116	0xbf379b43	-0.71721286
117	0xbe420496	-0.18947062
118	0x3bcaea25	0.006192463
119	0xbe8a3d7d	-0.27000037
120	0xbda54623	-0.08070018
121	0x3e01df30	0.12682796
122	0xbeabafd2	-0.33532578
123	0xbd971d83	-0.07378676
124	0xbc8e3d3d	-0.017363185
125	0x3ea42685	0.32060638
126	0xbe20da68	-0.15708315
127	0xbd8f77db	-0.070052825
128	0x3e20e246	0.15711316
129	0xbdb45f3a	-0.088072255
130	0xbe0db1db	-0.13837378
131	0xbe6c172b	-0.23055713
132	0xbe5dcf0b	-0.21661012
133	0x3d432a55	0.047647793
134	0xbe26347c	-0.16230959
135	0x3eb44f5d	0.352168
136	0x3da90fea	0.082549885
137	0x3e943b03	0.28951272
138	0xbf03c824	-0.51477265
139	0xbe17bc24	-0.14817864
140	0xbde92986	-0.11384873
141	0xbebc944b	-0.3683189
142	0xbe6d12f2	-0.23151758
143	0xbed948fc	-0.42438495
144	0x3e2b1f97	0.1671127
145	0xbe67e0e8	-0.22644389
146	0xbd8c58f8	-0.06852907
147	0xbf3988c0	-0.7247429
148	0xbf1e7ca9	-0.61908966
149	0xbe3b54be	-0.18294045
150	0x3e1bd002	0.15216067
151	0xbd9c198f	-0.076220624
152	0xbda7f025	-0.08200101
153	0xbe6c04ae	-0.2304866
154	0xbe065962	-0.13120034
155	0xbe9f1783	-0.31072626
156	0x3ed9a53e	0.42508882
157	0xbeab90b2	-0.3350883
158	0x3e808908	0.25104547
159	0xbf1a92b0	-0.6038008
160	0xbef35acd	-0.47530213
161	0xbe56af88	-0.20965397
162	0xbd46446f	-0.048405107
163	0x3cd3c348	0.025849953
164	0xbf866858	-1.0500593
165	0x3d04097a	0.0322356
166	0x3e51c3b2	0.20484808
167	0xbd84687e	-0.06465243
168	0xbdb9c657	-0.090710334
169	0x3d1a4634	0.037664607
170	0xbed1d459	-0.4098232
171	0xbf325375	-0.69658595
172	0xbe85fff6	-0.26171845
173	0x3e93bf6e	0.28856987
174	0xbfb3eeff	-1.4057311
175	0x3e53e0ca	0.20691219
176	0xbe6f81f6	-0.2338942
177	0xbe725584	-0.23665434
178	0xbf1ffe4e	-0.62497413
179	0x3e82ef90	0.25573397
180	0xbcf7c1c6	-0.030243766
181	0xbe072dad	-0.13201018
182	0x3d591b25	0.053004403
183	0xbdb69d6f	-0.08916747
184	0x3e21b729	0.15792526
185	0xbf362f04	-0.7116549
186	0x3d99ed40	0.07515955
187	0xbd88d49a	-0.066811755
188	0xbdc8ae6c	-0.09798893
189	0xba5582e3	-0.0008144809
190	0xbcf2aec6	-0.029624354
191	0xbeb26fdb	-0.34850964
192	0x3e05669b	0.13027422
193	0xbdfba59e	-0.12287448
194	0xbe2813b8	-0.16413772
195	0x3db93f56	0.090452835
196	0xbea0c70a	-0.31401855
197	0xbf23630c	-0.6382301
198	0xbe9b1fba	-0.30297643
199	0xbc58afb4	-0.013225485
200	0xbe54b794	-0.20773154
201	0xbdc072c9	-0.093968935
202	0x3ddd71c2	0.10812713
203	0xbe577d9e	-0.21044013
204	0xbf426039	-0.75928074
205	0xbe007a14	-0.12546569
206	0x3be980aa	0.0071259337
207	0xbe868483	-0.26272973
208	0xbe4b280c	-0.19839495
209	0x3dafcc26	0.0858386
210	0x3e7b6ae2	0.24552491
211	0xbd823b43	-0.063589595
212	0xbe937795	-0.2880217
213	0xbdeaf16d	-0.114718296
214	0xbd911161	-0.07083393
215	0xbd90ddc6	-0.0707355
216	0xbda74a01	-0.08168412
217	0xbec0b14e	-0.37635273
218	0xbe00ed47	-0.12590514
219	0xbd11226a	-0.03543321
220	0xbd48117a	-0.048844792
221	0xbe127aad	-0.1430461
222	0xbd752994	-0.059854105
223	0xbe925b64	-0.2858535
224	0xbe80d183	-0.25159845
225	0xbde76959	-0.1129939
226	0xbd8a282e	-0.06745945
227	0xbdb011e6	-0.08597164
228	0x3d3c3fec	0.0459594
229	0xbe4ba6a6	-0.1988779
230	0x3bb7d8f3	0.005610579
231	0xbc938046	-0.018005501
232	0xbe11e819	-0.14248694
233	0xbe5209af	-0.20511506
234	0xbdadf99e	-0.08494876
235	0xbe9b92fc	-0.30385578
236	0xbe04fde3	-0.12987475
237	0x3d2c9736	0.042136393
238	0xbdf47275	-0.119358934
239	0xbe0dcde6	-0.13848075
240	0xbeb34e7b	-0.35020813
241	0xbe2b0043	-0.16699319
242	0xbdca1f71	-0.09869278
243	0xbe8bba10	-0.27290392
244	0xbde8754f	-0.113505
245	0xbef54614	-0.47905028
246	0x3e4a10ed	0.19733019
247	0xbe1c3997	-0.15256344
248	0xbd1d14cd	-0.038349915
249	0xbf9d1aec	-1.2273841
250	0x3e36f693	0.17867498
251	0xbe2c8c5e	-0.16850421
252	0xbe87cb23	-0.2652217
253	0xbf8296ab	-1.020223
254	0x3e5246c0	0.20534801
255	0xbebda2dd	-0.37038317

fc3.bias f4 [128]
0	0xbda2b32e	-0.07944332
1	0xbdb63eca	-0.08898695
2	0x3e7d9847	0.2476512
3	0xbd9f3340	-0.07773447
4	0x3ee7f462	0.45303637
5	0xbf119165	-0.5686248
6	0x3ef40c62	0.47665697
7	0x3ebbad77	0.3665578
8	0x3eb1438b	0.34621844
9	0xbe967d30	-0.29392385
10	0x3e878c3b	0.26474175
11	0xbe026b9b	-0.1273636
12	0x3e900ea9	0.28136185
13	0x3ed00aa4	0.40633118
14	0xbf142b89	-0.5787893
15	0x3b4a76aa	0.0030893483
16	0x3ec7fc3f	0.39059636
17	0xbefbf5fa	-0.49211103
18	0xbef6649b	-0.4812363
19	0x3b84cf8e	0.0040530628
20	0x3ed0c8be	0.40778154
21	0x3d8b6df1	0.06808079
22	0x3e89e3de	0.2693166
23	0x3efd2048	0.4943869
24	0xbd72468f	-0.05914932
25	0xbb9bf5df	-0.0047595347
26	0x3ee5a82a	0.44854861
27	0xbf2f7076	-0.68530977
28	0x3e3143be	0.17310998
29	0xbf0cd6ef	-0.5501546
30	0x3e7ce2b0	0.2469585
31	0x3ef5facc	0.48042905
32	0xbd5e7204	-0.054307953
33	0xbefee96c	-0.49787462
34	0x3eac929d	0.33705607
35	0xbed9457e	-0.4243583
36	0x3e88fc8c	0.26755178
37	0x3eb40533	0.35160217
38	0x3eaf15d3	0.34196338
39	0xbe025b85	-0.12730224
40	0xbf04436c	-0.5166538
41	0x3e5b4457	0.21412788
42	0x3ec56194	0.3855101
43	0x3ed29494	0.4112898
44	0x3e1abafe	0.15110394
45	0x3ea3f3ac	0.32021844
46	0x3eae8bd2	0.3409105
47	0x3ec47ba2	0.38375574
48	0xbf0363e6	-0.5132431
49	0x3ef47478	0.4774511
50	0x3d82f970	0.06395233
51	0x3e9059dc	0.28193557
52	0xbe289f62	-0.1646705
53	0xbddefd2e	-0.10888134
54	0x3e75b444	0.23994547
55	0xbd1f9417	-0.03895959
56	0x3ebb918f	0.3663449
57	0xbd9a2459	-0.07526464
58	0xbe6e3f7f	-0.2326641
59	0xbf06889e	-0.5255221
60	0xbf17c034	-0.59277654
61	0xbcc242a1	-0.023713412
62	0xbeee3b84	-0.46529782
63	0x3ec784ab	0.38968405
64	0x3ea2962b	0.31755194
65	0xbef79a0f	-0.48359725
66	0xbf0d9d27	-0.5531792
67	0x3edd3851	0.43207029
68	0xbe5bb014	-0.21453887
69	0x3ec8d979	0.39228418
70	0xbe2c77cb	-0.16842572
71	0xbef4500a	-0.47717315
72	0xbe43d554	-0.19124347
73	0x3ec33916	0.3812949
74	0xbe96e7d3	-0.29473743
75	0xbdb843df	-0.089973204
76	0xbe9cb6ea	-0.30608302
77	0x3ec69be3	0.38790807
78	0x3ebbcee2	0.36681277
79	0xbf1f61f8	-0.62258863
80	0x3eae8f06	0.34093493
81	0xbedf112f	-0.43567798
82	0x3f00259d	0.50057393
83	0x3e49f28a	0.19721428
84	0x3e99cd1e	0.30039304
85	0x3e97bc55	0.29635873
86	0x3e8755ec	0.2643274
87	0x3edf3f62	0.43603045
88	0x3ea99d58	0.33127856
89	0xbf015e8b	-0.50534886
90	0xbe8d1c59	-0.2756069
91	0x3ebbb6ca	0.36662894
92	0x3ea558fd	0.32294455
93	0xbf02967e	-0.5101088
94	0x3eb861e9	0.360122
95	0x3eaaccbb	0.33359322
96	0xbe9023fe	-0.2815246
97	0x3d157e64	0.03649749
98	0x3eb59aa0	0.35469532
99	0x3eccd6c3	0.400076
100	0x3c6e2095	0.014534135
101	0xbf045d6b	-0.51705045
102	0xbefb8068	-0.49121404
103	0x3e9dd9e6	0.30830306
104	0x3ebce6d4	0.36894858
105	0x3ec1aa52	0.37825257
106	0x3e9f1cfa	0.31076795
107	0x3edd0cf8	0.43173957
108	0xbf217fb2	-0.6308547
109	0x3eb4bedc	0.35301864
110	0x3f00e2ce	0.50346076
111	0x3ea8cdfc	0.32969654
112	0xbe8902bb	-0.26759896
113	0x3ed66230	0.41871786
114	0x3ee12973	0.43976936
115	0x3d278079	0.040894005
116	0x3ecbe961	0.3982649
117	0x3ec669dc	0.3875264
118	0x3d05f515	0.03270443
119	0x3ec173e3	0.37783727
120	0xbf05157f	-0.51985925
121	0xbf215cc5	-0.6303218
122	0x3ee9910a	0.4561847
123	0xbf07a00b	-0.5297858
124	0xbf025847	-0.5091595
125	0x3e9a2ef1	0.30113938
126	0x3eb8be45	0.36082664
127	0xbf007a9f	-0.50187105

fc4.weight f4 [1, 128]
0	0xbf8c96b0	-1.0983486
1	0xbf671033	-0.90259093
2	0x3eb4c63a	0.35307485
3	0xbfa18c68	-1.2620974
4	0x3e1edbf0	0.15513587
5	0xbda06021	-0.07830835
6	0x3e0eeb02	0.13956836
7	0x3ea7b2cb	0.32753596
8	0x3eb4722b	0.35243353
9	0xbe57fedf	-0.2109332
10	0x3e28d93a	0.16489115
11	0xbec1ad44	-0.37827504
12	0x3e890783	0.26763543
13	0x3e84ec55	0.25961557
14	0xbda64e5c	-0.081204146
15	0xbf6483c2	-0.89263546
16	0x3e2435d6	0.16036162
17	0xbdd7e4a2	-0.10541655
18	0xbbdd456b	-0.00675266
19	0xbf9cb895	-1.224383
20	0x3e74b751	0.23898055
21	0xbf6730f9	-0.903091
22	0x3ea26cd1	0.31723645
23	0x3e107121	0.14105655
24	0xbed0bcbe	-0.40769
25	0xbfb57fe2	-1.4179652
26	0x3e1656f5	0.14681609
27	0xbe936fc1	-0.287962
28	0x3f456b98	0.771173
29	0xbde31790	-0.110884786
30	0x3ec44478	0.38333488
31	0x3e93130e	0.28725475
32	0xbee182f9	-0.44045237
33	0x3af2c718	0.0018522469
34	0x3e6c9e15	0.23107179
35	0xbe948ed2	-0.29015213
36	0x3ec1e5a0	0.37870502
37	0x3e933a3e	0.28755373
38	0x3ecb9e59	0.39769247
39	0xbea73fad	-0.32665768
40	0x3b06146a	0.0020458945
41	0xbebbcf46	-0.36681575
42	0x3e760ec0	0.24029064
43	0x3ea51898	0.32245326
44	0xbe810bc5	-0.25204292
45	0x3e7b9af6	0.24570832
46	0x3ead7651	0.3387933
47	0x3e935219	0.28773573
48	0xbdc22d61	-0.094813116
49	0x3e42a5f2	0.19008616
50	0xbee19581	-0.44059375
51	0x3e91086f	0.28326747
52	0xbf21a355	-0.6313985
53	0xbec524df	-0.38504693
54	0x3f5c09be	0.85952365
55	0xbf5852e9	-0.8450151
56	0x3e55f454	0.20893985
57	0xbfab66f6	-1.3390796
58	0xbeeaa1ba	-0.45826513
59	0xbd37d842	-0.044883974
60	0xbe1285c6	-0.14308843
61	0xbe88faf6	-0.26753968
62	0xbca7165c	-0.020396404
63	0x3dc88895	0.09791676
64	0x3eac34fa	0.33634168
65	0xbc29f5ff	-0.010373591
66	0xbd4b6841	-0.04965997
67	0x3e0501d7	0.12988983
68	0xbe67d96d	-0.22641535
69	0x3e41b4cc	0.18916625
70	0xbf079599	-0.5296264
71	0xbcc78482	-0.024355177
72	0xbfa51b86	-1.2899024
73	0x3e0d2168	0.13782275
74	0xbe386e92	-0.18010929
75	0xbf411f0e	-0.7543801
76	0xbef64af0	-0.48104048
77	0x3e2d9b62	0.16953805
78	0x3e235691	0.15950991
79	0xbdb4b8d4	-0.08824316
80	0x3f444519	0.76667935
81	0xbe810b9b	-0.25204167
82	0x3e05ae07	0.13054667
83	0x3fbb831d	1.4649388
84	0x3e5417aa	0.20712152
85	0x3e8ba6f2	0.27275807
86	0x3f1bc9e7	0.60854954
87	0x3e9b9328	0.3038571
88	0x3e604e92	0.21904972
89	0xbd385eab	-0.045012157
90	0xbf04b20a	-0.51834166
91	0x3e1afa3f	0.15134524
92	0x3e1d9e2e	0.15392372
93	0xbda881b1	-0.08227862
94	0x3e0d11d4	0.13776332
95	0x3e722470	0.23646712
96	0xbea7b911	-0.32758382
97	0xbf113292	-0.5671779
98	0x3e6298f1	0.22128655
99	0x3df82dfc	0.12118146
100	0xbec90684	-0.39262784
101	0xbd14689b	-0.036232572
102	0xbdda3080	-0.10653782
103	0x3e27ec08	0.16398633
104	0x3ec206f3	0.37895927
105	0x3e385cca	0.18004146
106	0x3e86b689	0.26311138
107	0x3e160799	0.14651336
108	0xbe1e1e97	-0.15441357
109	0x3db18202	0.08667375
110	0x3e1f0717	0.15530048
111	0x3dfe5d73	0.12420168
112	0xbee34f89	-0.44396618
113	0x3e289f49	0.16467012
114	0x3e492a26	0.19644985
115	0xbf9066a5	-1.1281325
116	0x3f4cc69a	0.7999054
117	0x3dbd19e6	0.09233455
118	0xbe6accb7	-0.22929655
119	0x3e91033c	0.2832278
120	0xbdbc1b8a	-0.0918494
121	0xbdc5958a	-0.09647663
122	0x3e4e0325	0.20118387
123	0xbdea689e	-0.114457354
124	0xbdb4b5ef	-0.088237636
125	0x3e5424f0	0.20717216
126	0x3e30b08f	0.17254852
127	0xbd392a4a	-0.045206346
