DDPG/cart_pole_actor.pth (torch_old, 6977 bytes, 3 tensors)

fc1.weight f4 [256, 4]
00000000: c6e3 113d d1bf dc3e a4b0 86bf 633b 74bf
00000010: 560d 99be c335 7a3e ca96 823e 7a28 9b3e
00000020: b55f 8abd fc35 bb3c 8cfb d4be 06ed 87bd
00000030: b98e 8cbe 43fe 4dbf 8aa6 bcbf c1b9 d8be
00000040: 3b77 e63e ba1a 863e 2700 5a3f 6b4b 973e
00000050: 6e99 1abc 8c6f 823e eff1 c4bd 95d0 e83e
00000060: 3fb3 65be 65a4 84be 4bd3 ce3d 3e80 cebe
00000070: 78fc 97bd dc5e fb3d 2bdd db3e 2f83 783f
00000080: bd42 073e 5f15 41bf 42bf 11c0 0aaf a7bf
00000090: d0c3 01bf 69e2 28be 7822 c03d 89cc 883f
000000a0: 9144 07be 9885 0abf 5666 edbf e01c 27bf
000000b0: 6c91 a8be 17d6 24bf 6111 cfbf b238 163e
000000c0: 4ae3 b5bb 6de0 a43e 4c8c 2b40 dfe4 963f
000000d0: 2b62 113e b6a4 873e ab6c 19bf bf09 86bf
000000e0: f907 10bd 5801 24bf 7669 60bf 7fc7 d3be
000000f0: fecf ebbc abf2 5abe 7524 22bf 5a56 483f
00000100: 290e a23d 75dd 3abd 1a25 ae3e fcb1 e43d
00000110: 76a4 343e a925 393d 685f 12bf 20d6 c03d
00000120: 7366 f03e 59d1 e53e 3ce4 573f 262c 583f
00000130: 2677 483e d646 bebe 1549 bebf cc23 d33d
00000140: c241 e3be 0d24 8d3e d999 3a3f 7e05 21bd
00000150: e720 83be 1196 11bd e808 bf3d 55bb 89be
00000160: 6bfa 9c3d 083a 49be dc56 8c3e cf4b 75bd
00000170: 5eda 2e3f 5479 8d3e b822 37be fd59 a9bd
00000180: 3c6d 633e 3e68 5cbd 5494 d8be 6c65 13be
00000190: ce4f 083f 991c a93e eec5 4f3d 4bbe b7be
000001a0: 8233 a43d 9283 1abf 2a77 5fc0 44a3 9cbf
000001b0: 3188 1abe d3ff 383e 0151 393d f8c9 493e
000001c0: 2fda 72bd 5e22 293f acbc ebbd b8d8 9cbf
000001d0: d351 07bf 954e 0e3e 3d81 1b3e 88e4 a83d
000001e0: 484a e33e 29e5 c13e ad2e 4d3f 9951 14bf
000001f0: caf9 08bf 46f7 cabd a754 a4bd e298 70bf
00000200: 59c3 8abe ef08 163d 497d 713e d09a 723e
00000210: ce2e 87be 48a8 5e3e 48f6 803f 6121 0abf
00000220: 9df7 13be d079 933d adb5 903e 00ce 193e
00000230: 5d2e 143f 56b4 893e 468a fa3e 03a6 203e
00000240: 3232 58bf 76f3 babe 442a e5be 664f 17bf
00000250: 2829 80be fdb6 cebe 626e 1ac0 31d9 01be
00000260: 715f 8b3e b0d7 923e 28cf 81bf d5dc 9cbf
00000270: 2179 f53d ff49 0ebf 2673 08bf 6afb 8fbf
00000280: cd2c adbe 7d51 1abf 3389 9fbf ce60 55be
00000290: c795 68be 4c4d 5d3d d703 843d 0778 153e
000002a0: 2ae5 1abf 1d8a a53e ae20 813f 5f3e 3d3e
000002b0: 78d9 1e3f 1339 723e 9896 3c3e e3cf ce3e
000002c0: 3394 96be 4f9b 35bf c4be 1ebf 1b22 b9be
000002d0: 91d5 36bd 92e9 96bd f44b e23e f907 26bc
000002e0: 4ac0 97bd 4e5b 983c 59f2 633e e555 28bc
000002f0: 9f67 2cbf 4fc6 9c3d d1ff e93f 16a6 203f
00000300: f15d 4bbe c6e5 c5be 28a1 91bf ea02 aabe
00000310: 7183 14bf cbe4 6f3d e265 823f e967 1cbe
00000320: f5a7 873d 52a0 84bd 4839 27bf 99e6 cfbd
00000330: 2f60 a3be 15f6 b23e 2dae 213e c4fe 383e
00000340: ca5c 883d 3d1c 8abc e592 61be f21f e9bd
00000350: 4995 c9be 1ded 98be d99e 973f 7c55 443f
00000360: a7e4 e5be 4f95 0ebf d78e a7be 26f1 d5be
00000370: 27bf 2dbe 3e83 9b3e 2d91 4a3f d10c 383e
00000380: 3c61 c0be f556 0dbf bed1 b7bf 0d94 a1be
00000390: 39f4 2dbf 3270 05bf 2b3c 093e e4c3 b8bf
000003a0: 9602 103e bbcb c83c c1ff 413c d3c7 97bd
000003b0: 9ed4 4cbe c59d efbe 12a5 df3e 1d8a 3b3f
000003c0: d3c0 183f 63de c93c 4562 933e baa5 6c3f
000003d0: 6341 203e 6dc4 9abf 4603 aebf 7075 3ebe
000003e0: a139 2fbe c733 933d d728 f7bd d6a5 8b3e
000003f0: 816e c43e 8b88 04be 5e83 afbf 7588 53bf
0.035617612 0.43115094 -1.0522656 -0.95403117 -0.29892987 0.24434571 0.25505668 0.3030432
-0.06756536 0.02285289 -0.41598165 -0.066370055 -0.2745264 -0.804661 -1.4738324 -0.4232922
0.4501284 0.26192266 0.8515648 0.29549727 -0.009435995 0.2547573 -0.09616458 0.45471635
-0.22431658 -0.25906673 0.10098895 -0.40332216 -0.074212015 0.12273952 0.42942175 0.9707517
0.13209052 -0.75423235 -2.2772985 -1.3100293 -0.5068941 -0.16492619 0.093815744 1.0687419
-0.1320975 -0.541101 -1.8546855 -0.65278435 -0.32923448 -0.64389175 -1.6177179 0.14670065
-0.0055507766 0.32202473 2.680438 1.1788596 0.14197604 0.26492852 -0.5993144 -1.0471724
-0.035163853 -0.6406455 -0.8766092 -0.4136314 -0.028785702 -0.21381633 -0.6333688 0.7825676
0.07912857 -0.045621354 0.3401268 0.1116676 0.17640862 0.04520193 -0.5717683 0.09415841
0.46953163 0.44886282 0.84332633 0.84442365 0.19576702 -0.3716342 -1.4866053 0.10309562
-0.44386107 0.27566567 0.72891 -0.03931188 -0.2561104 -0.035543505 0.093278706 -0.26900735
0.07664951 -0.19651043 0.27410018 -0.05988675 0.6830195 0.2763163 -0.17884338 -0.08269117
0.22209638 -0.05381035 -0.42300665 -0.14394158 0.5324677 0.3302963 0.05072587 -0.3588737
0.08017637 -0.6035701 -3.4916482 -1.2237325 -0.15091015 0.18066339 0.045243267 0.19705951
-0.059290107 0.66068065 -0.11510596 -1.2253637 -0.5285923 0.13897164 0.15186019 0.08246714
0.4439261 0.37870148 0.80149347 -0.5793701 -0.5350615 -0.09910445 -0.08023959 -0.9398328
-0.27102163 0.036629613 0.23582949 0.23691869 -0.26402897 0.21743882 1.0075159 -0.5395718
-0.14449926 0.07200968 0.28263608 0.15019989 0.57883245 0.26895398 0.4893362 0.15688328
-0.8445159 -0.3651387 -0.4475881 -0.5910553 -0.250314 -0.40373984 -2.4129872 -0.12680508
0.27221254 0.28680182 -1.0141344 -1.2254893 0.11985994 -0.5558166 -0.533007 -1.12486
-0.33823243 -0.6028059 -1.2463745 -0.2083771 -0.22713386 0.054028794 0.06446045 0.14596568
-0.60505927 0.32331935 1.0088098 0.18480824 0.6205058 0.23654585 0.18416822 0.4039298
-0.29409942 -0.7094011 -0.62009835 -0.36158833 -0.044637267 -0.07368769 0.44198573 -0.010133737
-0.07409723 0.018598225 0.22260417 -0.010274385 -0.67345613 0.07655012 1.8281194 0.6275343
-0.19860055 -0.38651866 -1.1377306 -0.33205348 -0.58013064 0.058567803 1.0187342 -0.15274014
0.06623832 -0.06475891 -0.6532178 -0.10151405 -0.3190932 0.3495337 0.15789099 0.18065935
0.06658323 -0.016859168 -0.22028692 -0.11383046 -0.39371708 -0.29868403 1.1845351 0.7669294
-0.4490101 -0.55696577 -0.32726166 -0.41785544 -0.1696745 0.30373567 0.7912777 0.17973639
-0.37574184 -0.5521081 -1.4360883 -0.31558266 -0.6795078 -0.5212432 0.13401859 -1.4434781
0.14063486 0.024511209 0.011840762 -0.0741116 -0.20002982 -0.46800056 0.43680626 0.7325762
0.59669226 0.024642175 0.2878591 0.9244038 0.15649943 -1.2091194 -1.3594749 -0.18599486
-0.17111827 0.0718761 -0.120683365 0.2727496 0.38365558 -0.12942712 -1.3711965 -0.8263009

fc1.bias f4 [256]
00000000: 381d acbd 6dae 48bf e501 05bf 0e4d ed3e
00000010: 4817 83bf 9c18 db3e bf5a 793e 489c 10bd
00000020: d7df d3be 4f2f 153e 4bd5 9cbe 1bc8 d53e
00000030: f1b9 27bf da19 3bbe 361f 15bf 2aa0 813e
00000040: 81ae 0abf d5a9 0f3f 035b 423d b2d7 e53e
00000050: 83c6 373f bec3 ba3e 2366 b13e ae80 1e3e
00000060: 7dbf 66bf 99fd dcbe 66fd c7be b9cc d6be
00000070: 3021 773e bcf7 233f c0fd aabe 1dc1 8d3d
00000080: b9e8 3d3f 24f9 d33e 5807 ee3e 9a25 d3be
00000090: 8bfe bdbd 0f0c 0a3f 2b15 2fbe 08c0 c8be
000000a0: f8d0 3cbf 0ccf 1abf 318f a13e 1306 8fbf
000000b0: 990c 243f 518c d63e fdde 623e 2c30 823d
000000c0: f2e1 bd3e 0978 943d dda3 e63e 34f4 54bf
000000d0: f836 2abf ee08 ee3d c8b4 313f 16f5 a83e
000000e0: f9d4 163f 7593 d1be e7d0 a43e 3bdb 24bd
000000f0: 63b7 e7bd d417 a5bd 010c 033f 2d6c b6bd
00000100: d1e3 d73e a343 32bf a3a9 29bf 6e5d f13e
00000110: 8eec 273f 2c80 f13e 4b06 b9bd ed2e 913e
00000120: 2913 713e 5cb4 3bbf d29a 323f fd01 123f
00000130: df23 353e dd8f 9dbe 4478 ce3e 0322 2f3f
00000140: 8081 adbe 4b6b c03e b48b 3cbf 4576 0bbe
00000150: 756b d53e fee6 ef3e 88b2 17bf 66dc 5abf
00000160: db98 c0be 8180 b13e 90ca dbbd ce8c e7be
00000170: 60d1 823d a6d0 30bf f715 98bf fcde e4be
00000180: 59b3 a03e 36d1 1cbf 009a cabd 60f3 8dbe
00000190: 789f 84bf 587b 563d 5315 e5bd 5a8b 51bf
000001a0: 9451 8e3e 0daf 27bf 1f9a 25bf 03e0 0e3f
000001b0: 260b bbbd 5be7 87be 0a26 a43d 53c1 c83e
000001c0: 0381 883e dc9d d4bd 41ec 32be 98ce 17bf
000001d0: 443d 05be 0e4e fd3e 6073 88bf 49fd ba3d
000001e0: dce6 e13e dc69 13bf 1914 1ebd 4ff2 22bf
000001f0: 65d6 eb3e 2261 d7be d625 8f3e f00c 3cbf
00000200: 39b8 a0bd df5f c93e 72de b4bd fd39 1b3f
00000210: 0631 6cbd 3e81 493f b2b2 9fbe 765b fe3e
00000220: ac50 3ebf 8e8b 563f c12e 2bbd 9be8 143f
00000230: ef2c f83e 2c31 26bf 21ee b43e 97d6 93be
00000240: 6370 863d 6386 d1bd d401 d2be d5e9 af3e
00000250: 0270 0b3f 1d56 483d 469c 1ebd 13f3 cb3e
00000260: a8cb 9a3e 264d e7be 1daa 04be 4de4 8e3c
00000270: 2577 613e 1277 393d c039 c43e 896d bcbe
00000280: 2dad 223e 986d 6fbf 1a45 80bd 8d72 b33e
00000290: d770 e53e 1f7f 3ebf 6e5b 573e 550d ef3e
000002a0: aa76 0d3f 4605 6e3e f66d 06bf 792b bfbe
000002b0: 35e9 053f 9a3a d8be 162e 623e 821b c93e
000002c0: 9b9f 123f da5b 7cbe dfc0 2f3f 9190 43bf
000002d0: 9d21 38be f5c9 f43d 69e6 9eba 06ab f63e
000002e0: dd9b 93bd 364e 81be 9dee 92be 1b94 61ba
000002f0: 579c c83e 74b8 0ebf 8f01 37bf e0d6 56be
00000300: 0c3e dfbd 4da7 58be 9a9c 8fbe a640 083f
00000310: e408 043f 015f 4d3e 2784 a83d b344 173f
00000320: d6b4 813e f36c 123e 3dd7 12bf 069d 583e
00000330: a676 983e a9a1 78be 41af 123f 0905 bb3e
00000340: b435 debe ef6c bfbd 8cd2 e23e 0ae0 34bf
00000350: 1c63 883e a197 243f 8dcb 963e 6ca5 c6bd
00000360: 4ec2 4ebf 5c8c 393e 5e33 0e3f 338f dcbe
00000370: 06ec c93e 8432 ac3d c8e5 afbe 56d8 293e
00000380: 1041 0e3f c707 b23e 5a13 c13e a343 043f
00000390: 720e b63e 3cf2 b4be 5d6f 00bf 0409 a53e
000003a0: b8d6 123f cccf 66bf fc19 013e 4485 0a3e
000003b0: 43aa 5abf 8f66 df3d 866f 233f 56b1 8dbf
000003c0: 3e7a 2e3f e9be ae3e 1f63 0c3e 52ce 8f3e
000003d0: 07f3 a23e 7561 863e f22c 643d c9fc 0b3f
000003e0: f463 2cbf d18f 0ebf 2dc0 87be e9b7 fa3e
000003f0: 484e 013f fd0f 0cbe df88 7b3e b6a8 88be
-0.084040105 -0.7839115 -0.51956016 0.4634785 -1.024148 0.42792213 0.24351023 -0.03530529
-0.41381714 0.14568828 -0.3063148 0.4175423 -0.655181 -0.1827158 -0.5825075 0.25317508
-0.5417252 0.5611852 0.047450077 0.44891125 0.7178728 0.36477464 0.34648237 0.15478775
-0.9013594 -0.4316223 -0.39060515 -0.41953066 0.24133754 0.6404989 -0.3339672 0.06921599
0.7418323 0.41401017 0.46489978 -0.41239625 -0.09277066 0.5392465 -0.17097919 -0.39209008
-0.7375636 -0.6047218 0.3155456 -1.1173729 0.6408172 0.41903928 0.22155376 0.06356844
0.37086445 0.072494574 0.45046893 -0.83185124 -0.66490126 0.11622797 0.69416475 0.32999486
0.5891872 -0.40932813 0.3219063 -0.040248137 -0.11314275 -0.080611855 0.5119019 -0.08907352
0.42165998 -0.69634455 -0.6627447 0.47141594 0.6559533 0.471681 -0.090344034 0.28356114
0.23542465 -0.7332208 0.6976749 0.57034284 0.17689465 -0.3077382 0.4032613 0.6841127
-0.33887863 0.37581858 -0.7365067 -0.13619335 0.41683546 0.4685592 -0.5925679 -0.8549255
-0.3761662 0.34668353 -0.10731995 -0.45224613 0.06387591 -0.6906837 -1.1881703 -0.44701374
0.3138683 -0.6125673 -0.098926544 -0.27724743 -1.0361166 0.052363724 -0.11185708 -0.8185326
0.27796614 -0.6550148 -0.64688295 0.55810565 -0.09132986 -0.26543698 0.08015068 0.39209995
0.26660928 -0.10381672 -0.17472936 -0.5929961 -0.13011652 0.49473614 -1.066021 0.091303416
0.44121444 -0.57583404 -0.038593385 -0.63650984 0.46062008 -0.42066294 0.27958554 -0.7345724
-0.07847638 0.39330956 -0.088314906 0.6063536 -0.05766394 0.7871283 -0.3119102 0.49679154
-0.74341846 0.83806694 -0.041792635 0.5816743 0.48471782 -0.6491878 0.35337928 -0.28874657
0.06564405 -0.1023071 -0.4101702 0.34358087 0.54467785 0.04891025 -0.038723253 0.39833888
0.30233502 -0.45176047 -0.12955518 0.017442847 0.22018106 0.04527957 0.3832531 -0.3680232
0.15886374 -0.935266 -0.0626318 0.35048333 0.44812652 -0.7441272 0.21030971 0.4668986
0.5525919 0.23244199 -0.5251154 -0.37337855 0.5230897 -0.4223221 0.22087893 0.392788
0.5727479 -0.24644414 0.6865367 -0.76392466 -0.17981572 0.11952583 -0.0012123111 0.48177356
-0.07207463 -0.25254983 -0.28697672 -0.0008605138 0.39181778 -0.55750203 -0.71486753 -0.20980406
-0.109005064 -0.2115757 -0.28049165 0.53223646 0.51576066 0.20055772 0.08228331 0.590892
0.2533328 0.14299373 -0.5735968 0.2115365 0.29778022 -0.24280418 0.57298666 0.3652728
-0.43400347 -0.09346949 0.4430126 -0.70654356 0.26638114 0.6429387 0.29452172 -0.096995205
-0.80765235 0.18119949 0.5554713 -0.43078002 0.39437884 0.084080726 -0.34354997 0.16586432
0.5556803 0.3477156 0.37710077 0.51665705 0.35557896 -0.3534106 -0.50169927 0.3223344
0.57358885 -0.9016082 0.12607569 0.135274 -0.8541605 0.109082334 0.63842046 -1.1069744
0.68155277 0.34130028 0.13709687 0.28087097 0.3182604 0.2624623 0.055706926 0.54682595
-0.67340016 -0.55688196 -0.26513806 0.48968437 0.5051007 -0.13677974 0.24563931 -0.26691216

fc2.weight f4 [1, 256]
00000000: 993e b6be 52d0 06be 1729 4f3e 49c7 ce3e
00000010: 259e bc40 3cf5 ab3d bf94 c23d 392f bc3f
00000020: 92b6 bbbf cd71 8abe c746 5e3f c5e4 eb3e
00000030: af7b 8240 b41d 1e3f 229c 92bf fddf 23be
00000040: a577 75be 8ea7 32bd 3d5b 81be c26b 07bf
00000050: 7d76 a9be 7ae6 963e 4d51 3b3d c011 2fbe
00000060: e9f9 283f 28c9 db3d 9e1e c4bf 68bc 93bd
00000070: d3c1 73be f5cb 9f3e 5bf9 8e3e 3a87 7d3c
00000080: 20a3 323e 9c0f 1ebe b599 c73d 9909 513e
00000090: 6415 bcbe 2f12 86bf ab57 88be a216 62bf
000000a0: 7c86 7ec0 4c90 4ebe 679c 23be fbef 5dc0
000000b0: 2f6e 29bf 6959 e13d 029b 893d a717 043f
000000c0: 5fe5 95be 30c9 c53e 02c3 b8bc 7f7e 88be
000000d0: 1d7d a53e 12da cabe 407c 0fbf ab04 09be
000000e0: d628 3bbf 665e a03f e9f9 2abd caf0 963e
000000f0: 36bd 33be 0a83 c63e 1972 533e 75e2 ae3f
00000100: 13ca b9be 4be4 b1bd d20b 0ac0 954c 32be
00000110: 259d c83e 50ca d23d daca dcbe 254c b23e
00000120: ad91 0f3f 57e1 823e 7b50 03c0 4c7a 0f3f
00000130: af3a f83e bdf0 a63e 007d 6b3d 2fd5 ab3e
00000140: 6620 0d3d 72ab 933e c3b4 bf3d 496d 09be
00000150: 06c0 cf3e 8077 d23e 095b 0cbe d137 0abe
00000160: 5b63 2fbe d67b b53e e2ff a1be 21eb 863e
00000170: c924 ccbd 5da9 813e b3db 93bf f204 1f40
00000180: 7944 f7be def9 ef3f c211 c1be 37c1 043f
00000190: 1e0e e6bf 4e6d b13e daa6 6f3f 1d14 243f
000001a0: aa03 b63e cc9f 56bd 6c1d 2f3f fe86 853e
000001b0: 3ca0 8cbe 8997 a33e 6aa3 8abe 1357 f33e
000001c0: 8a7f 5f3f 08fb 053e 442c 97be 158c 4b3f
000001d0: bbbc 00be e8a8 3e3e 452f 12c0 21bd b1be
000001e0: 12b9 7d3e 9fbe 9fbf 09a4 d4be ee88 68be
000001f0: 1f1a 7d3e 2aa9 3d3f 7dbc b43d b600 79be
00000200: 2799 efbf 6449 90be e2bb 193f 70f9 463f
00000210: 084a ba3f 8715 cd3e 90bc b63f 2ffe 9c3e
00000220: a569 1a3e b83a c6bf fdac 52bf f9d7 033e
00000230: 38fb 763e 0144 4f3f 7056 b93e 31af 27bf
00000240: 2a73 bdbe 73f9 e2be b642 1c40 ab8e 30be
00000250: bae5 11bf 73eb 20bf 18ac a4be a3fc d13e
00000260: 3522 dbbd 1647 1a3f f1ea d4be b71d 40be
00000270: f886 c8bd 0611 68be 0fee cebd d623 323f
00000280: d2cd 093f 85da 6abf 1405 4bbf 8d43 d5bd
00000290: 1726 8c3d 462b 323e a052 7b3e 34cb 733e
000002a0: 6a91 983e 81fb 67bd a0e2 d03e 624b 1c3e
000002b0: 61b5 09be 86e0 01be 3609 893d 4330 d5be
000002c0: 5f51 023e 1a83 b2be 8b57 b13e c155 5cbe
000002d0: c14b 79bf 2f42 a53e d834 e23e 30fc 79be
000002e0: 408f 10bf f8fc b73e d366 883e a48d 3abf
000002f0: 9c4c 6c3e dfdc 753f 994c 3ebe f3fa d03f
00000300: 0cb0 03be 8edd 16be eafb 123f 061e 8dbe
00000310: 4708 15be 5d21 c33e bd67 2abd 33fb 423f
00000320: 4488 cb3e 7cb6 e3bd 48da 4c3e b04a 08bd
00000330: 1c51 393e 1715 ba3e 5494 d03e 8295 61bd
00000340: 1d1c 19bd e183 56bf 6dc0 843e 98ab 55bd
00000350: adad be3d 8197 0dbf fe7a e8bd fc91 a43e
00000360: 38a6 9e3e 9a00 36bd c558 c63e 98a2 763e
00000370: f800 053f 2e86 3bbe ee70 b7bf d3ee 8f3e
00000380: b890 4a3d 7c9e 023e 3aac 93bd b9ae a43d
00000390: e609 c63d 97c6 d4be 62b7 6fbf 0239 8bbe
000003a0: 7133 cabd d3d3 c0be 84fc a23e 7419 2cbe
000003b0: e9f0 983d 0fd5 60bf 8979 793d 80dd d8c0
000003c0: 798f a1bf be45 87bd d451 0ebe cfca fcbd
000003d0: 7b40 1b3e b054 fa3e a9d0 f8be fb33 803d
000003e0: fe7b 80be 13b5 e5bf 214e 5f3f b906 943e
000003f0: 5d99 e03d 03fb 013e 0094 7d3e 3f5f 573e
-0.35594633 -0.13165405 0.20230518 0.40386418 5.8943048 0.08396384 0.09501027 1.4701911
-1.4665091 -0.27039948 0.8682675 0.46072975 4.077598 0.61764073 -1.1453898 -0.16003413
-0.23971422 -0.043616824 -0.25264922 -0.528988 -0.33098212 0.29472715 0.04573183 -0.17096615
0.6600633 0.10731727 -1.5321844 -0.0721367 -0.23804407 0.31210294 0.27924618 0.015474135
0.1744504 -0.15435642 0.09746114 0.20413817 -0.3673507 -1.0474299 -0.26629385 -0.88315785
-3.9769583 -0.20172232 -0.15977632 -3.4677722 -0.6618375 0.11003382 0.067190185 0.5159859
-0.2927656 0.38630056 -0.022553924 -0.2665901 0.32322016 -0.396195 -0.56048965 -0.13380687
-0.73109186 1.2528808 -0.04174224 0.29480582 -0.17552647 0.3877185 0.20648994 1.3662859
-0.36286983 -0.086861216 -2.1569715 -0.17412026 0.39182392 0.10292494 -0.43123513 0.3482372
0.5608166 0.25562546 -2.0517871 0.56045985 0.48482272 0.32605544 0.057492256 0.33561084
0.034454726 0.2884174 0.093606494 -0.13420595 0.4057619 0.41106796 -0.13706602 -0.13497855
-0.17127745 0.35446042 -0.31640536 0.26351264 -0.09967954 0.25324526 -1.1551422 2.4846768
-0.48294428 1.8748128 -0.3770886 0.5185732 -1.7973058 0.34653705 0.9361397 0.6409319
0.3554967 -0.052398488 0.6840427 0.26079553 -0.27466 0.3195155 -0.270778 0.4752737
0.87303984 0.13084042 -0.2952596 0.79510623 -0.12571995 0.1861912 -2.284135 -0.34714606
0.2477763 -1.2480048 -0.415314 -0.22708485 0.24716996 0.7408625 0.08825014 -0.24316677
-1.8718613 -0.28180993 0.6005231 0.7772436 1.4553843 0.40055487 1.4276295 0.30662677
0.15079363 -1.548667 -0.8229521 0.12875356 0.2411927 0.8096314 0.3619876 -0.65501696
-0.37001926 -0.4433094 2.4415717 -0.17241924 -0.5699116 -0.62859267 -0.32162547 0.4101306
-0.10699884 0.6026472 -0.41585496 -0.18761335 -0.09791368 -0.22662744 -0.10104 0.6958593
0.5382968 -0.91739684 -0.79304624 -0.10413275 0.068432026 0.1739932 0.24543238 0.23807985
0.29798442 -0.056636337 0.407979 0.15263131 -0.13448097 -0.12683305 0.0669121 -0.41638383
0.12726353 -0.34865648 0.34637102 -0.21517088 -0.97381216 0.32277057 0.44180942 -0.24412608
-0.5646858 0.35935187 0.2664095 -0.72872376 0.23076099 0.9604015 -0.18583907 1.6326584
-0.12860125 -0.14732954 0.5741564 -0.2756197 -0.14553939 0.38111392 -0.04160284 0.7616455
0.397524 -0.111187905 0.20005143 -0.033274353 0.18097347 0.36344215 0.40738165 -0.055074222
-0.037380327 -0.8379498 0.2592806 -0.052165598 0.0931047 -0.553093 -0.11351584 0.32142627
0.3098619 -0.044434167 0.387396 0.24085462 0.51954603 -0.18312904 -1.4331338 0.28111896
0.04945442 0.1275577 -0.07210584 0.08041138 0.09669857 -0.41557762 -0.93639195 -0.2719193
-0.09873093 -0.3766161 0.3183328 -0.16806585 0.07467825 -0.878251 0.06090692 -6.7770386
-1.2621909 -0.06605099 -0.13898402 -0.1234337 0.15161316 0.48892736 -0.48596695 0.062599145
-0.250946 -1.7945884 0.8722859 0.2891138 0.10966752 0.1269341 0.24763489 0.21032427
