DQN/checkpoint2.pth (torch_old, 20045 bytes, 6 tensors)

fc1.weight f4 [64, 4]
0.064467736 0.07629716 -1.3890527 -5.51427 -0.5498117 0.12603845 -0.51739 0.3191763
-2.0865018 -0.03497931 0.05109397 0.003129985 -0.33029494 -0.44348347 1.1831731 2.308225
0.03410091 -0.074607596 -4.716793 0.2984905 2.1642609 2.1855948 0.1605696 -0.36909446
0.2329417 0.04664163 0.15187576 -0.4701798 -0.59644514 -0.6739197 -0.3621324 0.87154835
0.0161853 -1.2894222 -0.47961476 0.61294454 0.09499823 0.22412768 4.1733704 8.0560465
-0.10910513 0.019677203 -0.3394288 -8.432346 -1.0261393 -2.1531496 -1.0346513 -1.9589335
-0.4221982 -0.350272 -0.05955144 0.756677 -0.17387408 -0.17936099 10.36462 -2.6691892
-0.1270846 -0.030946128 -11.987236 -0.697476 -0.14888756 -0.061863396 -9.35163 2.3902204
0.274486 -0.06310868 0.019090772 0.115852356 0.26916623 1.2152023 -0.7062065 -0.14876634
-0.44313756 -0.42293873 3.1431253 5.237834 0.5342791 -1.052378 0.3070302 -1.2337438
-0.5283703 1.185332 0.30389494 -0.9432038 -0.04721797 -0.2972967 4.368758 -2.6009612
-0.27638713 -0.2623855 4.5687313 2.820869 1.9862831 0.9366381 -2.0934527 -1.2208679
-0.122752726 -0.059179716 -5.8019814 -5.5782304 1.0855631 0.9577118 -0.20963824 -0.74203473
0.014648575 0.055149734 -6.149362 -8.336749 -0.14664546 -0.29410577 -0.47773737 0.5004851
-4.2142897 0.04198196 0.10242952 0.014934309 -0.049460717 -0.37886646 -0.120413646 0.34426007
-1.9355389 -0.5013389 -0.48155162 1.9376233 -0.16851917 -3.3102877 0.11228973 3.5852578
0.26130414 -2.8307345 -0.49841684 2.7492666 -2.7983298 -0.000777642 0.054605305 0.00058926764
-0.04803241 0.042556077 -0.30250144 11.684596 -0.01679232 -0.06664942 11.075947 -1.5414054
0.31944212 -2.516896 -0.43463448 2.6939938 -1.2493238 -0.8115558 0.7845892 0.63053554
-0.7977657 2.420252 1.4323977 -3.0421731 1.4394062 0.54740155 0.36859372 -0.16362198
-0.3417986 -0.112383865 -0.527539 -0.092085026 0.13813654 -0.26252112 -5.1452565 3.3223326
-3.8102005 0.32450795 3.7773278 -0.4493755 3.6545696 -0.3222349 -3.7193615 0.5742466
-0.1318522 0.03374386 5.879266 -4.9993253 -0.04656522 0.09680138 0.81378055 4.4297657
2.2217565 -0.04713397 -2.151967 0.15856679 -0.20592734 0.31580338 0.6607943 4.2005596
-1.1426984 -1.0342414 -0.5846714 -0.7806537 0.1717065 2.2668517 0.031440232 -2.3554904
-0.053479698 -0.07110487 -5.6773376 -0.58787614 -0.10298523 1.3291279 -0.57087785 0.86459243
0.67596716 0.15832783 -0.14343508 -0.08311104 -0.30842093 -0.21338719 2.028102 0.20730309
-0.54659265 1.5918505 0.8598616 -1.9928252 0.1038162 3.6526248 0.0039198194 0.0012777238
-1.6107554 0.092742115 -0.1722743 -0.558248 -0.007831366 -0.009796695 -0.6975817 8.200031
-0.8484068 1.1944888 0.14960542 -0.31991795 0.36994642 -0.5816044 -0.40296286 0.3598431
0.04559116 4.8647485 0.029765692 0.039464675 -0.035865583 0.044717867 7.0031943 -8.75112
0.12808698 -0.5035691 -0.6379868 0.35773337 -0.38839263 1.947117 0.20907223 -1.3266172
00000000: a907 843d af41 9c3d 7bcc b1bf e674 b0c0
00000010: 76c0 0cbf 3910 013e ac73 04bf 136b a33e
00000020: 3f89 05c0 7746 0fbd e947 513d 6f20 4d3b
00000030: 6b1c a9be 4410 e3be 3772 973f f5b9 1340
00000040: 65ad 0b3d decb 98bd f8ef 96c0 bfd3 983e
00000050: 4083 0a40 c9e0 0b40 5b6c 243e f3f9 bcbe
00000060: 4588 6e3e 4b0b 3f3d 5285 1b3e 68bb f0be
00000070: a1b0 18bf 0086 2cbf 6b69 b9be cb1d 5f3f
00000080: 0997 843c c90b a5bf 1190 f5be efe9 1c3f
00000090: 6f8e c23d ba81 653e 408c 8540 91e5 0041
000000a0: 8372 dfbd 1632 a13c 9dc9 adbe e4ea 06c1
000000b0: 8858 83bf 34cd 09c0 746f 84bf 55be fabf
000000c0: 5d2a d8be da56 b3be 36ec 73bd 95b5 413f
000000d0: 0c0c 32be 68aa 37be 7cd5 2541 ffd3 2ac0
000000e0: 7722 02be bc82 fdbc b8cb 3fc1 ca8d 32bf
000000f0: fb75 18be 7964 7dbd 47a0 15c1 5ff9 1840
00000100: 6e89 8c3e 203f 81bd 4064 9c3c 0044 ed3d
00000110: 28d0 893e c08b 9b3f f3c9 34bf 3456 18be
00000120: ede2 e2be 6d8b d8be f728 4940 569c a740
00000130: 84c6 083f 53b4 86bf 1033 9d3e 51eb 9dbf
00000140: 4743 07bf f5b8 973f 1e98 9b3e ce75 71bf
00000150: a167 41bd 4637 98be decc 8b40 2676 26c0
00000160: 9d82 8dbe 6457 86be 0c33 9240 1e89 3440
00000170: 863e fe3f 84c7 6f3f 21fb 05c0 6645 9cbf
00000180: c865 fbbd 6e66 72bd d5a9 b9c0 dd80 b2c0
00000190: bbf3 8a3f 9a2c 753f 68ab 56be fdf5 3dbf
000001a0: 9400 703c b0e4 613d 93c7 c4c0 5363 05c1
000001b0: 3a2a 16be 0895 96be fe99 f4be cb1f 003f
000001c0: 76db 86c0 47f5 2b3d 91c6 d13d 08af 743c
000001d0: 5297 4abd c9fa c1be 6e9b f6bd db42 b03e
000001e0: bdbf f7bf bf57 00bf ef8d f6be 0a04 f83f
000001f0: 4a90 2cbe c1db 53c0 28f8 e53d dd74 6540
00000200: a8c9 853e c12a 35c0 7e30 ffbe fcf3 2f40
00000210: d617 33c0 acda 4bba d0a9 5f3d 1579 1a3a
00000220: a2bd 44bd 484f 2e3d 78e1 9abe 1bf4 3a41
00000230: 0c90 89bc 7e7f 88bd 1437 3141 c64c c5bf
00000240: eb8d a33e d314 21c0 6988 debe 656a 2c40
00000250: d8e9 9fbf 1fc2 4fbf d6da 483f c76a 213f
00000260: 5f3a 4cbf 69e5 1a40 cf58 b73f f7b2 42c0
00000270: 763e b83f 8222 0c3f 51b8 bc3e 858c 27be
00000280: 3a00 afbe 8329 e6bd cc0c 07bf 1397 bcbd
00000290: aa73 0d3e 2b69 86be f1a5 a4c0 19a1 5440
000002a0: 53da 73c0 e825 a63e bdbf 7140 8c14 e6be
000002b0: 78e4 6940 f9fb a4be 050a 6ec0 d301 133f
000002c0: 4304 07be 0037 0a3d f222 bc40 79fa 9fc0
000002d0: 2cbb 3ebd cd3f c63d ec53 503f a4c0 8d40
000002e0: 4231 0e40 8d0f 41bd d4b9 09c0 555f 223e
000002f0: 9ede 52be fbb0 a13e d129 293f fc6a 8640
00000300: f143 92bf 0662 84bf 06ad 15bf ecd8 47bf
00000310: d4d3 2f3e 1914 1140 79c7 003d 5bc0 16c0
00000320: 870d 5bbd 6e9f 91bd c0ac b5c0 0d7f 16bf
00000330: ece9 d2bd dd20 aa3f 0d25 12bf ee55 5d3f
00000340: 2f0c 2d3f b120 223e a5e0 12be 1f36 aabd
00000350: 59e9 9dbe 2c82 5abe 6ccc 0140 4347 543e
00000360: 7fed 0bbf c2c1 cb3f e41f 5c3f e514 ffbf
00000370: 969d d43d 9bc4 6940 d471 803b 4c79 a73a
00000380: 3c2d cebf 94ef bd3d ad68 30be 57e9 0ebf
00000390: 214f 00bc 5182 20bc b794 32bf 5433 0341
000003a0: 3031 59bf 02e5 983f 2a32 193e 49cc a3be
000003b0: 9e69 bd3e 07e4 14bf 2651 cebe 5b3d b83e
000003c0: ccbd 3a3d 05ac 9b40 2ed7 f33c b6a5 213d
000003d0: cae7 12bd 152a 373d 2b1a e040 9604 0cc1
000003e0: 3c29 033e e8e9 00bf 1a53 23bf d428 b73e
000003f0: 66db c6be 213b f93f 0817 563e 98ce a9bf

fc1.bias f4 [64]
0.045402825 2.2170823 -0.18080685 -0.020648705 0.060479473 1.11171 2.5484183 2.089599
1.461748 -0.21816084 0.0374361 0.7586277 2.4507966 0.11740408 -0.014273005 -0.19628167
-0.4727345 1.6835948 -0.042078104 0.21547534 2.692412 0.0019517348 0.07580607 0.25571692
-0.51855254 1.1728395 0.59420675 2.4727085 0.44035578 2.5915425 -0.24961266 -0.15289792
-0.16382994 0.11292237 0.0064366437 -0.12571886 -0.106676646 0.8897033 0.12328879 0.9019223
2.386146 0.007916004 -0.5528712 0.502982 0.4983885 0.9721287 0.33094293 0.89362
0.7574676 0.23526868 -0.025794327 2.5054073 2.7174468 0.9803146 0.08034968 0.36484766
1.9214934 0.04864152 0.8253172 2.502107 0.15480793 0.6944711 2.0996118 1.7360334
00000000: 50f8 393d ade4 0d40 6e25 39be 7927 a9bc
00000010: 53b9 773d 834c 8e3f 4919 2340 fdbb 0540
00000020: 8f1a bb3f 8e65 5fbe 9956 193d 6d35 423f
00000030: dad9 1c40 8d71 f03d 52d9 69bc 10fe 48be
00000040: 420a f2be 0980 d73f 175a 2cbd 91a5 5c3e
00000050: 7a50 2c40 5ad1 ff3a 3640 9b3d 54ed 823e
00000060: dcbf 04bf 9b1f 963f ef1d 183f db40 1e40
00000070: 5076 e13e d5db 2540 769a 7fbe 4691 1cbe
00000080: 09c3 27be d843 e73d 7bea d23b 72bc 00be
00000090: 4979 dabd 98c3 633f d57e fc3d 61e4 663f
000000a0: 9eb6 1840 21b2 013c f888 0dbf 6ec3 003f
000000b0: c72c ff3e 6ddd 783f 5a71 a93e 48c4 643f
000000c0: 66e9 413f 46ea 703e a04e d3bc 9858 2040
000000d0: a6ea 2d40 e6f5 7a3f 5f8e a43d 50cd ba3e
000000e0: 7ff3 f53f 553c 473d fd47 533f 8522 2040
000000f0: f885 1e3e dcc8 313f 0a60 0640 5836 de3f

fc2.weight f4 [64, 64]
-3.2197907 0.25690544 -4.6004972 2.0584667 2.652688 0.2817168 0.12196418 0.21328935
-0.30330914 -0.87359375 -6.786217 -1.8006411 0.48501778 -0.1742853 -2.3052719 -2.6256166
0.09439595 -0.4802815 -0.6602585 1.4909388 0.02349885 5.342941 0.5278538 -4.8121758
-6.8788166 0.56660306 -6.7228827 0.31533766 0.63475794 0.25823468 3.7071028 -5.9590244
-6.8502746 -1.5858291 0.14302991 0.3574718 -7.3392534 -3.7716484 -6.955979 1.1509656
-0.07620534 -6.6890163 -4.6297398 -1.0365041 -3.460616 1.0777667 -0.017163187 1.8612696
-0.23876974 -1.5195539 -8.777628 0.3059746 0.041191977 0.25258732 -0.11281612 -0.5528694
-0.20463026 -2.7842839 -0.27340144 0.27933455 0.02127228 -1.2182157 0.033998907 -0.13264845
-3.1259956 0.8914494 0.099249065 0.46163854 -3.6772492 0.11397746 1.057989 0.6675008
0.21377023 -4.660893 -3.3259544 0.2173924 0.9087882 -8.552046 -4.6326766 -10.141329
0.07993612 0.7084969 -1.534527 0.32781023 1.2359761 -2.0339656 -1.1263621 0.026257288
-0.18968076 0.5243223 -2.775006 0.80521786 -0.25909895 0.8995175 -1.3595816 -0.20310022
0.6395778 0.86985534 -7.1340766 -2.8341088 0.5457924 -0.14947683 -2.2814476 -0.27489832
0.96992934 -5.7431607 0.4034446 -0.06283416 -7.963421 0.65027225 0.84689903 -0.035398796
0.7525075 0.80613714 -1.896783 0.75278914 1.0936816 1.7440361 -0.027476113 -0.23256156
0.9590904 -5.9437313 -0.23278281 1.0020685 0.24110286 -10.666665 0.75934976 0.6713639
-0.029722068 0.023852386 -0.31124577 -0.11320588 -1.8772728 0.07717644 -0.0024218413 -0.06388682
-0.24356435 1.0237503 0.08624344 -0.68698883 0.051158372 0.48831868 1.6145968 0.9662929
0.039845526 0.5733077 1.4141418 -0.030865017 0.3267385 -0.9994578 0.90210885 0.727286
0.47018203 0.24440952 0.60989636 0.08523312 0.67243004 0.18273827 0.2898004 0.46449474
-0.7304494 -1.8457193 0.07032407 1.5662342 0.4703925 0.8847837 0.5919723 0.2723357
0.08773448 0.5392053 -0.2344408 0.96680295 0.6566987 -0.114463754 0.17755622 0.354193
0.5026551 0.14214994 0.2374303 0.4470782 0.24020696 -0.3880608 0.10236704 -4.4780154
0.48793685 0.361829 -0.13888447 0.15471868 1.650218 0.69495887 -0.20909478 -0.1004986
0.19317368 0.15239394 -1.7032832 -1.0383741 -1.6155958 1.0896202 0.42631218 0.1389457
0.18904026 -0.55982065 -0.036595646 -0.58190393 0.20953386 -0.039112195 0.37221447 0.39828074
-0.0003412962 0.37404513 -0.43654537 -1.1705307 0.23301569 -0.88181555 -0.4798726 -1.9255347
-0.53390276 -6.3160625 0.16296999 0.35717103 -0.42633674 0.3929819 -1.7482553 0.19881831
1.2046709 -2.34065 0.31069657 0.35415155 0.37856174 -1.3013186 1.954316 -1.5363069
0.41680026 0.84809846 0.53755134 2.674685 0.4029551 0.07307349 -6.550606 0.16656809
-0.66708714 -1.9624501 -1.8170027 0.4933139 0.5101819 0.3625138 0.936127 0.03193464
0.010873215 0.50976276 0.3108757 0.50406426 -1.1925346 -0.104564056 0.32549185 0.6183432
00000000: 0d11 4ec0 1c89 833e 4637 93c0 ebbd 0340
00000010: a4c5 2940 2f3d 903e 5bc8 f93d 8668 5a3e
00000020: 564b 9bbe d7a3 5fbf b128 d9c0 687b e6bf
00000030: 4054 f83e d877 32be 9389 13c0 1a0a 28c0
00000040: aa52 c13d 75e7 f5be b306 29bf 15d7 be3f
00000050: a980 c03c 5ff9 aa40 6d21 073f 58fd 99c0
00000060: 441f dcc0 e60c 113f db21 d7c0 f073 a13e
00000070: 7f7f 223f 5637 843e 2c41 6d40 54b0 bec0
00000080: 7335 dbc0 73fc cabf 6f76 123e 8b06 b73e
00000090: 2adb eac0 b062 71c0 6197 dec0 d752 933f
000000a0: 8c11 9cbd 6c0c d6c0 d426 94c0 2bac 84bf
000000b0: bc7a 5dc0 42f4 893f d099 8cbc 153e ee3f
000000c0: 0e80 74be be80 c2bf 2a71 0cc1 b4a8 9c3e
000000d0: ebb8 283d 2053 813e 230c e7bd d988 0dbf
000000e0: 988a 51be b531 32c0 46fb 8bbe f004 8f3e
000000f0: 3443 ae3c 7eee 9bbf 7042 0b3d ffd4 07be
00000100: 5010 48c0 0736 643f 1843 cb3d e35b ec3e
00000110: 0d58 6bc0 046d e93d 2f6c 873f 55e1 2a3f
00000120: 95e6 5a3e 0926 95c0 70dc 54c0 1d9c 5e3e
00000130: 58a6 683f 2ed5 08c1 e33e 94c0 e242 22c1
00000140: 8cb5 a33d 0e60 353f 616b c4bf bed6 a73e
00000150: 7734 9e3f 7e2c 02c0 a22c 90bf 8619 d73c
00000160: ac3b 42be fc39 063f b399 31c0 c222 4e3f
00000170: 9ea8 84be c746 663f c506 aebf 81f9 4fbe
00000180: 5fbb 233f d7ae 5e3f 5b4a e4c0 0a62 35c0
00000190: 0db9 0b3f 7410 19be 3d03 12c0 79bf 8cbe
000001a0: 4a4d 783f f9c7 b7c0 4a90 ce3e 32af 80bd
000001b0: 58d4 fec0 3e78 263f 60ce 583f 54fe 10bd
000001c0: 55a4 403f 015f 4e3f c9c9 f2bf cab6 403f
000001d0: c2fd 8b3f 933c df3f 9615 e1bc 9e24 6ebe
000001e0: f386 753f 0c33 bec0 9e5e 6ebe c843 803f
000001f0: abe3 763e a9aa 2ac1 bf64 423f 81de 2b3f
00000200: b27b f3bc 1466 c33c 9b5b 9fbe 7cd8 e7bd
00000210: 7a4a f0bf ae0e 9e3d c1b7 1ebb 18d7 82bd
00000220: ef68 79be 400a 833f 67a0 b03d 80de 2fbf
00000230: 718b 513d e804 fa3e 1cab ce3f f95e 773f
00000240: 1035 233d 4bc4 123f 9902 b53f a2d8 fcbc
00000250: 454a a73e 77dc 7fbf 9bf0 663f 6a2f 3a3f
00000260: b3bb f03e 7d46 7a3e 2b22 1c3f b48e ae3d
00000270: 6024 2c3f be1f 3b3e b860 943e 41d2 ed3e
00000280: bbfe 3abf 8840 ecbf 1106 903d 5d7a c83f
00000290: 49d7 f03e 2f81 623f 7f8b 173f 966f 8b3e
000002a0: 23ae b33d 5c09 0a3f 4011 70be 6680 773f
000002b0: 681d 283f f96b eabd 4cd1 353e c958 b53e
000002c0: 01ae 003f c18f 113e ee20 733e 6fe7 e43e
000002d0: d0f8 753e e8af c6be d0a5 d13d e74b 8fc0
000002e0: dcd2 f93e a741 b93e bb37 0ebe 936e 1e3e
000002f0: 583a d33f d3e8 313f f11c 56be 36d2 cdbd
00000300: 52cf 453e 280d 1c3e 2f05 dabf 71e9 84bf
00000310: d8cb cebf ad78 8b3f 9745 da3e c847 0e3e
00000320: c593 413e 6850 0fbf 51e5 15bd a8f7 14bf
00000330: 0b90 563e 1c34 20bd e592 be3e 74eb cb3e
00000340: 00f0 b2b9 d882 bf3e e082 dfbe f3d3 95bf
00000350: aa9b 6e3e aabe 61bf ddb1 f5be ec77 f6bf
00000360: daad 08bf 2f1d cac0 9be1 263e 1fdf b63e
00000370: cf48 dabe ec34 c93e d4c6 dfbf 0797 4b3e
00000380: a832 9a3f 36cd 15c0 9f13 9f3e 5a53 b53e
00000390: d8d2 c13e 9c91 a6bf 0727 fa3f b4a5 c4bf
000003a0: d866 d53e fb1c 593f f79c 093f 0a2e 2b40
000003b0: 2250 ce3e 8ea7 953d 909e d1c0 d390 2a3e
000003c0: 39c6 2abf 9131 fbbf 8b93 e8bf a493 fc3e
000003d0: 489b 023f 699b b93e 05a6 6f3f e6cd 023d
000003e0: 9225 323c d07f 023f 1a2b 9f3e 5b0a 013f
000003f0: f9a4 98bf ae25 d6bd dea6 a63e bd4b 1e3f

fc2.bias f4 [64]
0.32571042 1.155856 0.37993118 0.38672248 -0.07941768 -0.11784753 -0.12159579 -0.14850412
0.78816605 0.21307153 -0.12045698 -0.029651362 -0.107317924 0.012266971 0.755223 0.4381698
0.4400708 -0.07482027 1.0669471 -0.023280794 -0.14720593 1.1175187 1.199758 -0.055649206
0.9415056 1.0944712 0.9172333 0.60161686 1.0957887 1.1470472 -0.13558674 -0.017723262
-0.07762127 -0.11440906 0.02573796 0.95488226 0.09235886 1.0169978 -0.0850179 0.69018275
0.9045738 1.2523018 0.47209573 0.87530696 0.44996214 1.2589691 0.81147695 -0.048760943
0.3313583 0.5232414 0.62927973 -0.105481304 0.70977205 1.3648528 0.7857577 -0.41377965
0.8803263 -0.15300721 1.146101 0.16443926 0.39221707 0.30731854 -0.3430989 1.008687
00000000: 84c3 a63e 17f3 933f 5786 c23e 7d00 c63e
00000010: bda5 a2bd 0c5a f1bd 3707 f9bd 7711 18be
00000020: 40c5 493f 6c2f 5a3e 26b2 f6bd 6ae7 f2bc
00000030: 80c9 dbbd 68fb 483c 4b56 413f cb57 e03e
00000040: f650 e13e 5f3b 99bd b991 883f 5db7 bebc
00000050: 27bd 16be da0a 8f3f ac91 993f 6cf0 63bd
00000060: 8306 713f a217 8c3f cdcf 6a3f 9003 1a3f
00000070: ce42 8c3f 71d2 923f 40d7 0abe 6030 91bc
00000080: e7f7 9ebd 4c4f eabd 6ad8 d23c 2a73 743f
00000090: a426 bd3d fc2c 823f dd1d aebd d1af 303f
000000a0: 2692 673f 6d4b a03f 88b6 f13e 1e14 603f
000000b0: 7061 e63e e625 a13f f4bc 4f3f 8eb9 47bd
000000c0: cca7 a93e 26f3 053f 7a18 213f 9506 d8bd
000000d0: 9fb3 353f 7fb3 ae3f 6b27 493f edda d3be
000000e0: 105d 613f ecad 1cbe 70b3 923f c462 283e
000000f0: add0 c83e db58 9d3e a9aa afbe a81c 813f

fc3.weight f4 [4, 64]
-3.0597272 -7.0519767 -0.016782908 0.66208375 0.013331294 1.556027 0.7861204 -0.049334764
4.1419163 -2.108583 -0.09999346 -0.63646805 0.073161885 0.08132477 0.68519276 0.017452992
-2.901439 0.08956051 0.5992111 -0.025802895 -0.15104094 1.8173918 1.0272377 0.2030748
0.6326628 -6.195341 2.766241 2.2290885 0.5590395 -1.6553565 0.07611684 0.10918601
-0.0074433857 -0.102565035 0.108800575 -6.48578 -2.765132 1.0263975 -2.4855201 -6.306219
0.4708858 -3.2068584 0.82159513 7.9575825 4.3557024 0.94368625 -6.0225706 0.010217697
-0.09523268 -1.61146 -5.4500446 -0.124925524 0.2926456 0.80053264 -3.9727752 -1.322738
5.827586 -0.42221332 4.0817776 0.7376991 2.0409636 -2.2571392 -1.112479 0.5116759
-0.99142814 7.5366406 -1.056735 0.62809336 0.015380417 1.4627497 0.8374644 -0.012562852
-5.7550654 -4.664351 -0.0025099318 -1.0808592 -0.09800729 -0.05648539 3.309828 0.29773828
-2.32029 0.068625316 1.0947728 -0.042389397 -0.33499295 -8.499698 1.266126 -0.45611602
0.8948006 0.34108585 -3.7939124 -0.21627134 0.93191177 0.1887996 0.06842066 0.00977698
-0.021171305 -0.09511247 0.11832905 -5.624228 -2.810572 0.74231315 -2.0363934 -6.6143684
0.6702486 0.17153515 -0.31439206 -4.260326 1.13395 0.999486 5.7983704 0.0008045286
0.48089457 -1.8494047 2.6589484 0.055307597 0.8145317 0.90739024 -1.3544294 -0.8482928
6.233731 -2.2384489 -5.8808494 0.14505252 3.6339874 3.9457285 -0.1880914 0.9992693
-1.7273637 5.8249884 2.408756 0.70859003 0.045839433 2.0128806 0.5171525 -0.0051415637
0.09481693 4.870638 0.70752263 -0.3921771 0.10885991 -0.0020423692 -7.9971623 0.3604386
-2.6096103 0.011415208 0.4495659 0.030525288 -0.30428508 5.9041824 0.98766196 -2.1405501
1.1021855 2.8931353 -6.304902 0.2502445 0.6911431 -5.6893306 -0.018481858 -0.0043759206
0.06258101 0.02649085 0.08789416 0.9413613 -4.0577087 0.5422105 -2.381666 0.8026661
0.66318524 -4.4137244 0.72156346 5.8199506 -6.7297482 0.82589763 1.2971023 -0.08873828
0.3113284 -1.33978 4.9660835 0.009335332 0.24457757 1.1177635 -5.7767286 -1.3602802
3.879742 -0.54293656 -3.6853676 0.5466274 -4.4282846 2.8566804 -0.59822285 0.53495663
-0.77807814 -6.2327256 0.26907453 0.5467377 0.056523114 -3.0540986 0.669312 -0.011048382
-2.1604323 2.4612243 -2.5355248 -0.8623049 -0.09827322 -0.023519412 1.8929118 1.1119257
-1.3988658 -0.008419888 0.6635629 0.06578384 -0.19078696 -3.5243533 -0.4130154 -2.9318874
-0.42265674 -6.2418656 -1.6997528 0.43585527 1.0330181 -2.8988702 0.09990335 0.023441339
-0.08175956 0.095036715 -0.016592998 4.423762 -2.2724946 0.9128134 -1.5633343 4.9904456
0.93710715 0.61384636 1.1652598 -2.118247 -2.3062408 1.0012608 -3.3197985 -0.0014654696
0.9930239 -1.6072689 1.3869705 -0.10380736 0.7282366 1.0078199 5.205571 -0.8916305
-9.367897 -0.75436735 -2.5916748 0.36458758 2.8177829 0.41523832 -0.84730685 0.93219286
00000000: 92d2 43c0 cba9 e1c0 4f7c 89bc 527e 293f
00000010: 806b 5a3c e52b c73f 303f 493f 4013 4abd
00000020: 948a 8440 06f3 06c0 5fc9 ccbd 92ef 22bf
00000030: e6d5 953d 9a8d a63d cb68 2f3f 94f9 8e3c
00000040: 2db1 39c0 806b b73d e665 193f 9860 d3bc
00000050: 7aaa 1abe 4ba0 e83f 867c 833f d7f2 4f3e
00000060: 30f6 213f 3c40 c6c0 180a 3140 63a9 0e40
00000070: 361d 0f3f b9e2 d3bf 25e3 9b3d ea9c df3d
00000080: a5e7 f3bb 9e0d d2bd d6d2 de3d 828b cfc0
00000090: ecf7 30c0 fe60 833f c312 1fc0 8ccc c9c0
000000a0: f217 f13e 2b3d 4dc0 0f54 523f 84a4 fe40
000000b0: ea61 8b40 6c95 713f e6b8 c0c0 2168 273c
000000c0: 5a09 c3bd 5244 cebf c466 aec0 f4d8 ffbd
000000d0: a5d5 953e b5ef 4c3f f341 7ec0 7b4f a9bf
000000e0: 967b ba40 582c d8be ec9d 8240 d9d9 3c3f
000000f0: 269f 0240 f874 10c0 b665 8ebf 31fd 023f
00000100: 3cce 7dbf 292c f140 1843 87bf baca 203f
00000110: 25fe 7b3c 623b bb3f 1164 563f 6cd4 4dbc
00000120: 7f29 b8c0 5d42 95c0 ab7d 24bb 9859 8abf
00000130: 0cb8 c8bd 395d 67bd 39d4 5340 2771 983e
00000140: a27f 14c0 6e8b 8c3d 8421 8c3f 81a0 2dbd
00000150: 3284 abbe c3fe 07c1 6b10 a23f 0a88 e9be
00000160: a711 653f cea2 ae3e 76cf 72c0 3c76 5dbe
00000170: c591 6e3f af54 413e 2220 8c3d a02f 203c
00000180: 726f adbc 54ca c2bd 8056 f23d adf9 b3c0
00000190: 69e0 33c0 3c08 3e3f 4554 02c0 e8a8 d3c0
000001a0: 6a95 2b3f e9a6 2f3e fff7 a0be 9754 88c0
000001b0: 4625 913f 51de 7f3f 408c b940 00e7 523a
000001c0: d037 f63e 4bb9 ecbf 362c 2a40 388a 623d
000001d0: 2685 503f ba4a 683f f15d adbf b829 59bf
000001e0: b97a c740 bf42 0fc0 eb2f bcc0 a688 143e
000001f0: 4093 6840 d186 7c40 089b 40be 1dd0 7f3f
00000200: 411a ddbf 4e66 ba40 0f29 1a40 2866 353f
00000210: 21c2 3b3d 09d3 0040 1b64 043f 907a a8bb
00000220: 612f c23d 44dc 9b40 3420 353f 70cb c8be
00000230: f2f1 de3d 45d9 05bb c1e8 ffc0 688b b83e
00000240: db03 27c0 da06 3b3c 802d e63e 2b10 fa3c
00000250: 41cb 9bbe 10ef bc40 6ad7 7c3f c6fe 08c0
00000260: 6a14 8d3f 2129 3940 c2c1 c9c0 0c20 803e
00000270: c1ee 303f ff0e b6c0 4467 97bc e263 8fbb
00000280: 792a 803d 5703 d93c da01 b43d 0efd 703f
00000290: c0d8 81c0 4fce 0a3f 376d 18c0 877b 4d3f
000002a0: 82c6 293f 3b3d 8dc0 62b8 383f 093d ba40
000002b0: 195a d7c0 076e 533f 7307 a63f 6abc b5bd
000002c0: 7066 9f3e e97d abbf 28ea 9e40 38f3 183c
000002d0: 8b72 7a3e e012 8f3f f6da b8c0 a91d aebf
000002e0: b14d 7840 e4fd 0abf 10dd 6bc0 c6ef 0b3f
000002f0: 82b4 8dc0 dad3 3640 2225 19bf ebf2 083f
00000300: 2130 47bf 7d72 c7c0 23c4 893e 00f7 0b3f
00000310: c884 673d 5a76 43c0 0858 2b3f 4604 35bc
00000320: 8644 0ac0 b384 1d40 0a46 22c0 04c0 5cbf
00000330: 7843 c9bd c8ab c0bc ef4a f23f 9553 8e3f
00000340: 090e b3bf 92f3 09bc 42df 293f aeb9 863d
00000350: a85d 43be 018f 61c0 c176 d3be 0ba4 3bc0
00000360: 7766 d8be 5dbd c7c0 8091 d9bf 6c28 df3e
00000370: f039 843f 1787 39c0 219a cc3d 0d08 c03c
00000380: 8e71 a7bd 9ca2 c23d 0aee 87bc 758f 8d40
00000390: 8d70 11c0 24ae 693f 571b c8bf bbb1 9f40
000003a0: 41e6 6f3f 0925 1d3f 3c27 953f 5c91 07c0
000003b0: 7399 13c0 5029 803f 9477 54c0 0015 c0ba
000003c0: d036 7e3f fdba cdbf 4088 b13f f498 d4bd
000003d0: b76d 3a3f 3e00 813f 0a94 a640 e541 64bf
000003e0: e8e2 15c1 381e 41bf 00de 25c0 39ab ba3e
000003f0: 8e56 3440 1e9a d43e 1ae9 58bf 31a4 6e3f

fc3.bias f4 [4]
0.5468441 0.728924 0.78615594 0.065408155
00000000: fafd 0b3f c39a 3a3f 8441 493f b6f4 853d
