DQN/fixed_env.pth (torch_old, 20045 bytes, 6 tensors)

fc1.weight f4 [64, 4]
000000 00 54 75 bb 5e 54 89 3e 16 b3 d2 be 80 66 bc be
       -0.00374341 0.2682218 -0.41152257 -0.3679695
000010 68 cc 25 3e 5e 04 0a bf 53 aa ff be 57 d8 95 3f
       0.16191256 -0.53912914 -0.49934635 1.1706647
000020 70 bf 35 bd 4c 7b 07 3e ac bb 1a be 70 48 c9 bd
       -0.044372022 0.13230628 -0.15110654 -0.098282695
000030 b8 91 f4 be 52 8b a9 be e8 0e 53 be 00 bb 97 3c
       -0.47767425 -0.33114105 -0.20611155 0.018521786
000040 60 69 4a 3e 18 9b 99 3e 8c 8d ad be fc f4 5e be
       0.1976676 0.3000114 -0.33897054 -0.21773142
000050 69 ca a6 3f 4f 09 75 3e 3d 79 12 3f c2 16 ad 3f
       1.3030521 0.23929332 0.57216245 1.352257
000060 aa ec 9a 3e 93 55 f8 bf b8 d3 39 3f ce 6f 1c c0
       0.30258685 -1.9401115 0.7258868 -2.444324
000070 be 45 c1 3e de 32 fe be 08 37 94 be b9 11 b0 3f
       0.37748522 -0.49648184 -0.28948236 1.3755409
000080 d7 7d e5 be df d0 19 c0 ae db 82 bf 31 6d 6f bf
       -0.4482257 -2.4033735 -1.0223291 -0.9352599
000090 e7 aa ed bd d1 df 4b 40 3d 5f 58 be 52 0e 6c 40
       -0.11604863 3.1855357 -0.2113008 3.688374
0000a0 2f 0b 39 3f 62 83 8e bf e2 79 aa 3f 14 73 b3 c0
       0.7228269 -1.1133845 1.3318446 -5.6077976
0000b0 78 58 b2 3a 51 6f 3f c0 51 57 5b 3e cb dd 5f bf
       0.0013606688 -2.9911692 0.21420027 -0.87447804
0000c0 44 d3 ea 3e 91 62 41 be fe b7 a7 3e ee 44 df 3f
       0.45864308 -0.18885256 0.32757562 1.7442911
0000d0 91 75 d8 3f 3f 67 0f c0 b6 48 ca 3f 76 ce 0e c0
       1.6910878 -2.2406766 1.580344 -2.2313514
0000e0 f8 d0 be 3d 6c 7a c6 be 18 6e b1 be d2 3e 84 be
       0.093172014 -0.38765275 -0.34654307 -0.25829178
0000f0 f9 e5 84 3f 1c 64 27 40 8c 2e da 3e 1b 7f 27 40
       1.0382682 2.6154852 0.42613637 2.617133
000100 6e 89 8c 3e 20 3f 81 bd 40 64 9c 3c 00 44 ed 3d
       0.274486 -0.06310868 0.019090772 0.115852356
000110 b2 42 dc 3f 59 e2 c2 3d 47 9c 11 3f d7 ed e6 3e
       1.7207854 0.09515829 0.56879085 0.45103332
000120 12 b8 30 3f 39 d7 21 40 d2 40 84 3f 22 d6 4d 40
       0.6903087 2.5287611 1.0332282 3.2161946
000130 78 ca cb 3d f8 9c de be 90 66 3c 3d ac 27 a0 be
       0.09950727 -0.43479133 0.04599625 -0.31280267
000140 e4 11 9b 3e 0e 0d b4 be 8b 11 f6 3e 28 c1 01 3e
       0.30287087 -0.3516621 0.4806026 0.1267134
000150 08 aa bf 3d c8 80 ac bd b8 82 a8 bd 1c 5f 6a be
       0.09358603 -0.084230006 -0.082280576 -0.22887844
000160 f1 7f 1c 40 93 e7 3e c0 65 22 e9 3f be d5 e0 bf
       2.445309 -2.9828842 1.8213621 -1.7565229
000170 14 68 75 3f 8d aa e5 bf 03 f9 c7 ba 39 86 13 c0
       0.95861936 -1.7942673 -0.0015256706 -2.3050673
000180 9d 3b 32 3f 5a 0b e2 bf 56 e7 d7 bd bb d3 ef bf
       0.6962221 -1.7659714 -0.10542171 -1.873649
000190 f2 d4 f0 3e 54 7f ac 3e b0 3e 5f be d4 dc 00 be
       0.47037464 0.33690894 -0.21801257 -0.12584239
0001a0 78 dd f3 be 80 3e 13 bc 78 c8 c0 be a2 77 c5 be
       -0.47629905 -0.008987069 -0.37652946 -0.38567835
0001b0 32 c4 4f 3f 9a c7 f2 be 20 fe 5b bd 59 01 80 3f
       0.81158745 -0.4741791 -0.05370915 1.0000411
0001c0 06 25 7a 3e 8f d1 21 40 2b 50 91 3f 66 20 02 40
       0.24428186 2.5284154 1.135259 2.0332274
0001d0 17 9e 31 3f 0a 77 02 bf 98 02 92 3e 96 b3 59 3f
       0.6938185 -0.5096289 0.28517604 0.8503965
0001e0 9b a8 6c 3f 08 31 12 40 06 81 05 3f c8 24 2c 40
       0.9244477 2.2842426 0.5215 2.689745
0001f0 34 33 8b be e2 76 2a c0 29 05 f8 be 90 41 6d bf
       -0.27187502 -2.663506 -0.48441437 -0.92678165
000200 7e 80 92 bf 36 15 24 c0 03 c6 c2 bf 30 df 87 c0
       -1.1445463 -2.5637946 -1.5216678 -4.2459946
000210 76 c6 a6 be 40 34 d2 bc 00 42 b7 3e f0 88 52 bd
       -0.3257329 -0.02565968 0.35792542 -0.051400125
000220 80 ac 63 3c c0 ad 30 bd 10 3d cf 3d 60 c6 a2 3e
       0.013896108 -0.04313445 0.101190686 0.31791973
000230 c2 81 28 40 44 6f 02 c0 4e d8 2e 40 3a a2 df bf
       2.6329198 -2.038041 2.7319522 -1.7471383
000240 ca 13 c1 bc 0e fe 0e c0 84 ea 4e 3f 4a 64 19 c0
       -0.023569006 -2.2342563 0.8082659 -2.3967462
000250 ff c1 36 bf 18 08 27 c0 43 72 e5 bf 96 30 29 bf
       -0.71389765 -2.609869 -1.7925495 -0.6608976
000260 70 b4 cf bd 56 64 8c 3e 74 67 8a 3e 02 e5 f6 be
       -0.101418376 0.274203 0.27032053 -0.48221594
000270 2e b0 9f 3e 8a 52 c8 be f0 7b d8 bd 1c 9a 4f be
       0.31189102 -0.39125472 -0.10570514 -0.20273632
000280 47 59 d2 3d 17 e6 46 c0 c4 90 4a bf 0e 7c e7 bf
       0.102709346 -3.1077936 -0.79127145 -1.8084733
000290 28 3c a0 bd 80 e1 d3 3b b8 96 68 be b8 de 40 3e
       -0.07823974 0.0064660907 -0.22713745 0.1883496
0002a0 d9 06 b9 3c 63 4c 38 c0 d1 7b cb 3e 0f 1e b4 bf
       0.022586273 -2.8796623 0.39742902 -1.4071673
0002b0 50 e8 97 3f 63 a6 1a 40 98 62 b4 3e f3 b3 30 40
       1.1867771 2.4164054 0.3523147 2.7609832
0002c0 5a 93 94 3f f6 ea 22 bf 0d 4f 22 40 a6 ba 1d c0
       1.1607468 -0.6363977 2.5360749 -2.464517
0002d0 23 a2 cf 3f c4 89 ec bf 1b 66 07 40 22 00 9d bf
       1.6221355 -1.8479543 2.115607 -1.2265666
0002e0 cc 04 76 3e 40 d1 34 3e 00 3f f6 bd 50 5a d7 bd
       0.24025267 0.17657948 -0.12023735 -0.105152726
0002f0 14 0d aa 3f 31 23 91 bf 5e d2 e0 3f 90 04 1d bc
       1.3285241 -1.1338865 1.7564199 -0.009583607
000300 5e 60 12 bf 8c 1b 31 c0 86 80 c4 bf 1a e6 84 bf
       -0.57178295 -2.7673063 -1.5351722 -1.0382721
000310 30 2c 95 be 34 f9 2e 3e c4 8d 98 be 00 ba 32 bc
       -0.29135275 0.17087251 -0.2979566 -0.010908604
000320 3b f9 da 3d f6 65 03 c0 88 f5 48 bf 15 22 81 bf
       0.10692068 -2.0530982 -0.7849965 -1.0088526
000330 f7 8e 8a be 79 5b cc bd 9a 88 84 bf b2 40 cb 3f
       -0.270622 -0.099783845 -1.0354187 1.5879118
000340 ab fa 9e 3f cb b6 dc bf 4d dd 04 3f 42 53 0a bf
       1.2420248 -1.7243284 0.5190018 -0.5403329
000350 40 7a 80 3d 30 d3 e9 bd 00 3e 66 bb c0 a7 82 3d
       0.06273317 -0.11417234 -0.003513217 0.06379652
000360 98 3e c8 be 7a 2d 86 be d8 b7 ce 3e 86 c1 cf be
       -0.39110255 -0.2620657 0.40374637 -0.40577334
000370 d6 6b 19 3f 3a e1 22 40 4e ee 58 3f ba 35 15 40
       0.5993017 2.5449967 0.84738624 2.3314042
000380 00 84 d1 be 36 2f 3c c0 60 cc 85 bf a6 4a a7 bf
       -0.4092102 -2.9403815 -1.0452995 -1.3069656
000390 73 0a ca 3d 4b ad 24 40 3a 67 53 be d7 a3 5f 40
       0.09865274 2.573077 -0.20644847 3.494375
0003a0 87 a8 d9 3f ac c3 b8 bf ce 1a 08 40 5f e5 e2 bf
       1.7004555 -1.4434714 2.126636 -1.7726249
0003b0 96 7f 2d 3f 1e 78 56 c0 2c 9a 47 be cb 87 9e bf
       0.67772806 -3.3510814 -0.19492406 -1.2385191
0003c0 63 f1 27 3e de f1 ba 3e aa 22 22 be 61 85 16 bc
       0.16400675 0.36512655 -0.15833536 -0.009187073
0003d0 29 c8 a6 3f a1 d1 30 c0 7a 7f 82 3f 2e 0e 17 c0
       1.3029834 -2.7627947 1.0195153 -2.3602405
0003e0 ab e5 69 3f 2c 14 2e bf 5d 99 f9 bc 3e 9b 3f 3f
       0.9136607 -0.6799953 -0.030468637 0.74846256
0003f0 51 81 3f 3f ff 06 0c c0 48 a2 da 3d 1f bf 14 c0
       0.74806696 -2.187927 0.10675484 -2.324165

fc1.bias f4 [64]
000000 e6 bb fd be 87 a8 c2 3f 20 e5 75 be d0 d6 aa be
       -0.49557418 1.520768 -0.24013186 -0.33367014
000010 62 7b 93 be 20 26 a3 3f 50 91 3b 3f aa 3f d2 3f
       -0.2880507 1.274601 0.73268604 1.6425679
000020 f1 4a a6 3f 7d 5a d7 3e 79 6a 66 be 98 27 95 3f
       1.299162 0.42061225 -0.22501554 1.1652708
000030 42 50 c8 3f 12 4d 53 3f 1c 40 72 be 9c b8 40 3c
       1.5649493 0.82539475 -0.23657268 0.011762764
000040 42 0a f2 be 2f 28 88 3f af 42 b3 bc 50 3e e4 be
       -0.4727345 1.0637263 -0.021882383 -0.4457879
000050 0f 82 c9 3f d0 3f a6 be 0c 38 54 3f be 64 23 3f
       1.5742816 -0.3247056 0.8289802 0.63825595
000060 91 b2 09 3f fa 41 ac be 2c ee ce be 77 93 ce 3f
       0.53788096 -0.33644086 -0.40416086 1.6138753
000070 66 09 9b 3d 58 44 c6 3f 60 3e 59 bd 0e d0 a4 3f
       0.07570152 1.5489607 -0.053038 1.2875993
000080 5f 1a ec 3d 60 27 b6 bc 52 ea 9b be 67 83 53 3f
       0.115284674 -0.022235572 -0.3045221 0.8262238
000090 26 13 ce 3e 30 a6 a3 3f c0 4c e6 bd 58 ce 9d be
       0.40248984 1.2785091 -0.11245108 -0.3082149
0000a0 95 91 b2 3f 94 92 be be 05 ba ac 3f 7e c6 73 bd
       1.3950678 -0.37221205 1.3494269 -0.05951547
0000b0 f1 87 39 be 04 55 24 3f 22 fb 84 be 04 41 90 3f
       -0.18118264 0.64192224 -0.2597285 1.1269841
0000c0 f5 fb b1 3f ca 13 be be fb 33 8f 3f a8 ec d0 3f
       1.3905016 -0.37124473 1.1187738 1.6322222
0000d0 64 8f a4 3f 58 e6 80 bd 9a dd d1 be bb 84 f9 3c
       1.2856259 -0.062939346 -0.4098938 0.030458799
0000e0 84 b1 ac 3f 88 3d 84 3e 30 2a 36 3f 08 b7 ac 3f
       1.3491673 0.25828195 0.71158123 1.3493357
0000f0 cf c8 8a be ef c8 57 3f 04 9e b1 3f 25 2f aa 3e
       -0.2710633 0.84290975 1.3876348 0.33239093

fc2.weight f4 [64, 64]
000000 90 12 2b 3c 60 48 29 3f fa 40 c9 bd e0 f2 20 3c
       0.010441437 0.6612606 -0.098268464 0.009823531
000010 b4 45 b1 3d 1a cd 47 3f 34 f5 9d be 18 34 29 3f
       0.08655873 0.78047335 -0.30851138 0.66095114
000020 33 8e 87 3e 27 a8 99 3f fb 92 13 c0 09 3f aa bc
       0.26475677 1.2004441 -2.305846 -0.02078201
000030 8c ad 50 3f 3e 3d dd be b2 f4 b0 bd 08 eb ec 3e
       0.8151481 -0.43210787 -0.08640422 0.46273065
000040 aa 52 c1 3d 2e 0e 18 3f 4d 22 6b 3e 44 56 c6 3d
       0.09439595 0.59396636 0.22962303 0.096844226
000050 64 e1 ee 3e a0 ae 33 bd e4 47 cb be 6c 2b b5 be
       0.46656334 -0.043867707 -0.39703286 -0.3538469
000060 0c 66 d2 be fe 25 e6 3d 90 60 77 3d d9 61 23 3f
       -0.4109348 0.11237715 0.060394824 0.6382118
000070 43 d8 39 3e 09 86 11 3f 7f fb 6c 3e 58 0e 92 3e
       0.18148904 0.56845146 0.23142813 0.28526568
000080 22 45 7d c0 f8 53 47 3d 80 e2 b5 3c 15 c9 02 bf
       -3.9573445 0.048664063 0.02220273 -0.51088077
000090 0b dc 02 3e f9 4d 53 3e fe ce b2 bd 88 46 e7 3c
       0.12779252 0.20635213 -0.08730887 0.028231874
0000a0 87 f1 81 3d ba 8d fc bd 7d 1c 53 bc d8 e0 99 3e
       0.06344896 -0.1233172 -0.01288521 0.30054355
0000b0 ce 7e 45 3f ba 9f 11 bf 48 16 cd 3d f1 1e 21 3e
       0.77146614 -0.5688435 0.100140154 0.1573446
0000c0 38 59 cc 3d e8 75 a5 bc 28 43 c8 3d 23 7c 60 3f
       0.099779546 -0.020197824 0.09778434 0.8768942
0000d0 fb 8a 09 3e 38 ce 79 bd c4 51 f7 bd 8b e8 1f 3e
       0.13431923 -0.06098768 -0.120761424 0.15616052
0000e0 77 aa 2a 3e 2f 98 89 3f 6c 2e 1f bf a7 36 3d 3e
       0.1666659 1.0749568 -0.6218021 0.1847788
0000f0 92 79 ec 3d ca c9 8d be 92 33 0a 3f b8 76 98 3e
       0.11546625 -0.27693015 0.5398494 0.29778075
000100 14 61 29 3d ae 1e 29 39 18 c7 84 3d 58 24 9f 3d
       0.041352347 0.00016128525 0.064832866 0.07770604
000110 2c 32 33 bd 39 24 2f bd a5 3d a9 3f ad c4 14 be
       -0.04374902 -0.042759154 1.3221937 -0.14528151
000120 0f 2c c6 bd 5f 9f 08 bf 7e e1 10 c0 51 c7 44 3e
       -0.09676372 -0.5336818 -2.263763 0.19216658
000130 f7 49 8d ba ca dd cb 3f c4 24 94 bd f5 4d 56 3f
       -0.001077949 1.592706 -0.07233575 0.83712703
000140 8c b5 a3 3d 08 ec d0 bd 2f 5a 4c 3f b8 46 eb 3d
       0.07993612 -0.102012694 0.7982511 0.11488098
000150 43 91 42 bd 5a 57 c2 bd 91 69 00 40 54 18 ae 3f
       -0.047501814 -0.09489317 2.0064433 1.3601174
000160 d3 f4 94 3f 5c e9 8f 3d d6 74 91 bd 64 2d f5 bd
       1.1637214 0.07026932 -0.07102363 -0.11971548
000170 4c 3a 46 3f f6 7f b6 bd 18 b3 47 3f 9a 28 20 3a
       0.77432704 -0.08911125 0.7800765 0.0006109566
000180 08 97 ac 3f 20 8f c5 bc b0 fe 43 3c 2f 1c d2 3f
       1.3483591 -0.024116099 0.011962578 1.6414851
000190 d6 fe 9d 3f c9 f3 f8 bd 00 f0 d1 3b 58 7f 75 3d
       1.2343395 -0.12155873 0.006406784 0.059935898
0001a0 1a 41 86 3d e0 f7 e9 bd 8d 0f 18 3e b2 fc 3b 3f
       0.06555386 -0.114242315 0.14849682 0.7343246
0001b0 18 1b 85 bf c7 ee b4 3f 18 cb b5 bd 09 d5 76 bd
       -1.0398893 1.4135369 -0.08876628 -0.06026176
0001c0 e1 8e 0a 3c 30 53 06 3c 73 40 01 be 15 b1 49 be
       0.008456917 0.008198544 -0.12622242 -0.19696458
0001d0 34 b3 4f bd 46 27 c3 bd ec 5d 7e 3d 09 3b 29 3f
       -0.05070801 -0.09528975 0.06210129 0.66105705
0001e0 aa 1d 6d be 9d 7d c8 be 0d 89 a2 3f c8 8b 9c 3d
       -0.23155847 -0.39158335 1.2698075 0.07643849
0001f0 4f dd c3 bd 47 41 04 40 ea 85 11 be 71 2c 97 3f
       -0.09563696 2.0664842 -0.1421124 1.1810437
000200 20 ca ba 3b 9e d4 23 bf e8 4e d4 3d 6e d7 89 3d
       0.0057003647 -0.63996303 0.10366613 0.06730543
000210 80 76 fe 3d 9a 16 83 be 26 a8 c2 3e 7a 3b c9 be
       0.12424946 -0.2560318 0.38018912 -0.3930319
000220 1d 0f c8 3d 40 14 27 3f 5d 4a 62 40 a6 1c cd 3c
       0.09768508 0.65265274 3.5357888 0.025038075
000230 e2 d8 04 bf 92 18 14 3f a0 e8 dc 3c b4 99 fb 3e
       -0.51893437 0.5784999 0.026966393 0.49140704
000240 10 35 23 3d be 4c 37 be 50 4d 29 3f 0c 49 ab bd
       0.039845526 -0.17900369 0.66133595 -0.08363542
000250 34 28 fe be e4 f5 1d bd 2f ab 6c 3f a4 da 12 3f
       -0.49640048 -0.038564578 0.92448705 0.5736487
000260 c7 33 e4 3e b0 9f 66 bc 00 84 33 3d fe 41 04 bf
       0.44570753 -0.014076158 0.043827057 -0.51663196
000270 31 07 bd 3e 84 5e a1 be 3b 05 0f 3f 82 eb e5 3d
       0.3691955 -0.31517422 0.55867356 0.1122656
000280 af 95 1c 40 64 99 7d bd 48 dd d2 bd 50 e5 13 3f
       2.446636 -0.061913863 -0.10296112 0.5777178
000290 05 7d 18 3f 7c 70 5b 3e 68 6e 9e 3d dc a7 8d 3d
       0.59565765 0.21429628 0.07735902 0.06916782
0002a0 58 f9 aa 3d 94 4c 1e bd 61 f4 95 3d 8a 1b 23 3f
       0.0834834 -0.03864725 0.07322002 0.63713896
0002b0 3d 8c c4 3f 1a 88 cf 3e ea da d6 3d ad a2 46 be
       1.5355297 0.40533525 0.10490973 -0.19397993
0002c0 c9 e6 f9 bb c4 82 8a bd cf 66 2a 3e 15 8a 12 bf
       -0.0076263887 -0.06763223 0.16640781 -0.57241946
0002d0 a0 60 8c be 6e 8e b4 3d f8 4b 80 3d a0 3b 34 3f
       -0.2741747 0.08816229 0.0626449 0.7040348
0002e0 c2 25 57 3e 43 46 49 3f 66 d4 02 3f 08 85 97 3b
       0.21010497 0.78622836 0.51105344 0.004624013
0002f0 d4 94 92 bc 10 6c 3e 3f 25 6f d0 be 08 b3 1f 3f
       -0.017893232 0.7438364 -0.40709797 0.62382555
000300 88 0e 0e bd b2 4b 55 3f 40 e5 00 3d 68 9a 35 3d
       -0.034681827 0.83318627 0.03146863 0.044336706
000310 10 26 7a bd 82 af 4b 3f ec 33 00 be 43 9b 5a 3f
       -0.061071455 0.7956468 -0.12519807 0.8539316
000320 35 29 9a 3f 4c e6 b1 3e 0f 82 37 bf 6c d2 60 3f
       1.2043825 0.34746015 -0.7168283 0.8782108
000330 f3 ed 42 3f 5b 18 f7 be 4c 44 eb 3d c3 0d a7 3e
       0.7614433 -0.4826077 0.11487636 0.32627687
000340 00 f0 b2 b9 86 7d 33 3f 96 76 f6 3e 0e 07 fa 3d
       -0.0003412962 0.7011341 0.4813735 0.12208377
000350 57 8d 45 3f 10 88 cf bd 38 98 05 bf 52 0f 4e be
       0.7716879 -0.10133374 -0.5218539 -0.20123032
000360 96 d1 5a be 4e 90 a7 bd e0 a3 37 bd ef bf 60 3f
       -0.21369013 -0.08181821 -0.044834018 0.8779287
000370 45 8e 96 3e 8d 16 60 3f 93 08 a7 3e ec 94 86 3f
       0.29405418 0.8753441 0.3262373 1.0514197
000380 07 11 9c 3e 84 7f d2 3d 88 13 ad bd 2c 4d 1b bf
       0.3048174 0.10278228 -0.08450991 -0.6066463
000390 e4 c8 8f be 4b 54 ac 3f 26 e2 f2 bd d2 6a f5 bd
       -0.28082955 1.3463224 -0.11859541 -0.11983265
0003a0 d5 03 9a 3f f8 f7 a1 bd b0 51 75 3f d9 a1 b1 3e
       1.203242 -0.079086244 0.9582777 0.34693792
0003b0 11 ea 7d 3f 18 03 0b bf 3c ac a2 3d 68 b2 3f 3f
       0.9918528 -0.54301596 0.07943007 0.748816
0003c0 53 7b 8a 3f d8 21 97 bd 02 94 89 3f 0c 15 72 3f
       1.0818886 -0.07379502 1.0748293 0.94563365
0003d0 32 75 47 3f 2e 63 f1 3d 28 13 e4 bc fb 1a ac 3e
       0.779132 0.11786495 -0.027841166 0.33614334
0003e0 1e 31 9d 3f 0c 6e ce 3e 8d 98 dc be cc 36 82 3f
       1.2280614 0.40318334 -0.43085137 1.0172973
0003f0 34 51 1b bd 32 e2 a7 be 14 04 59 3f 11 08 4e be
       -0.03791924 -0.3278976 0.8477185 -0.20120265

fc2.bias f4 [64]
000000 1d 1a 33 3f 3a 36 62 3b c9 37 fa be d2 cd 49 3f
       0.6996172 0.0034517185 -0.48870686 0.7882968
000010 e2 1b 92 bd 25 1a e9 3e 3c d9 88 3f e5 3c 03 be
       -0.071342245 0.4552776 1.0691295 -0.12816198
000020 fa 47 a3 3f 91 bc 08 be 3b e0 7d 3e 71 09 81 3d
       1.275634 -0.13353182 0.24792568 0.06300629
000030 88 7d bf bd 60 cd f4 3c a1 7f 85 3f 42 70 e5 3e
       -0.09350115 0.029883087 1.0429574 0.44812208
000040 d5 08 a7 3c 41 86 31 bd 76 4e 13 3f 48 8d ac 3f
       0.020389954 -0.043340925 0.57541597 1.3480616
000050 b6 99 f4 3e 0e dc d4 bc 3b ac 5a bd 31 5b 67 be
       0.47773522 -0.025983837 -0.053386908 -0.2259338
000060 0c 44 95 3c 83 0c 6a 3e 9f f7 9e 3d cc 1f ea bc
       0.018220924 0.22856335 0.07762074 -0.028579615
000070 a7 2c d1 3c 79 b9 bd 3e a3 58 0f be 07 e4 bf 3b
       0.025533987 0.37055567 -0.13998656 0.0058560404
000080 96 25 84 bd b7 f0 a3 bd 10 dd 2d 3d 9c dd 2e 3d
       -0.064524814 -0.08004897 0.04244715 0.042691812
000090 b6 70 b7 bc 02 59 8d bd 5f 73 d0 3e d2 2d 67 3f
       -0.022392612 -0.069017425 0.4071302 0.9030429
0000a0 a1 c3 f4 bc aa 01 86 3e f0 3e 05 be 2b 0d 10 3f
       -0.02987844 0.26173145 -0.1301229 0.5627009
0000b0 17 4e a0 3e b6 2e c9 3c fa d1 f4 be 28 ab 06 bd
       0.31309578 0.024558406 -0.4781645 -0.03287807
0000c0 0b 79 12 3d 74 43 e6 3d 9a fe 59 3c 72 7f b7 bd
       0.035759967 0.112433344 0.013305331 -0.08959855
0000d0 1f 73 1c 3e c2 e5 ee 3e 36 63 ee 3d db d2 ac be
       0.1527829 0.46659666 0.11640017 -0.3375462
0000e0 44 da a0 3d 92 47 b6 bd fc b8 a0 3e 2b 40 13 be
       0.07854131 -0.0890037 0.31391132 -0.14379947
0000f0 15 18 28 be 80 2a c0 ba e6 21 15 3e 8a 9c 95 3d
       -0.16415437 -0.0014661103 0.14563712 0.07305248

fc3.weight f4 [4, 64]
000000 91 0c 6d 3f d0 6e d9 bf 1a b1 46 40 d7 5f 4e 3d
       0.925973 -1.6986942 3.1045594 0.05038437
000010 80 6b 5a 3c de ee 1a 3f e1 92 7f 3f c0 95 f0 bc
       0.013331294 0.6052073 0.99833494 -0.029368281
000020 45 4a 64 3f 2c e9 f8 bd e4 e0 a7 3f 1f 08 c3 bb
       0.89175826 -0.12153849 1.3115506 -0.005951896
000030 de 21 b2 3d ea 6f c1 3d 2d b1 54 3f a8 73 93 3f
       0.08697866 0.09445174 0.8308285 1.151967
000040 28 66 bf 3f 80 6b b7 3d 30 3d 69 3f a6 3b 90 3f
       1.4953051 0.08956051 0.9110899 1.1268203
000050 03 cd 18 3f 8d ff ab bc 93 4a 17 c0 f7 5c 95 3f
       0.59687823 -0.02099588 -2.3639266 1.1668996
000060 ee 61 85 3d c0 b2 ec bf 97 cf df 3e b7 36 1b 3d
       0.06512819 -1.849205 0.43713066 0.037893977
000070 fc 2c 3b 3d ed 1f a8 3f 38 19 c5 3d 53 6d e1 3d
       0.045697197 1.3134743 0.09623951 0.1100718
000080 50 78 2e bc 0b 43 b7 bd a3 01 e2 3d 7f 64 a4 3f
       -0.010648802 -0.08948334 0.110354684 1.2843169
000090 3c 77 d8 bf 06 97 9d 3d 55 48 2f 3f 13 cd 8e 3f
       -1.6911387 0.07694821 0.68469745 1.1156334
0000a0 8f 46 a5 bc f2 88 e4 bf 6e 45 ce 3d 6a 32 4b 3f
       -0.020175247 -1.7854292 0.100718364 0.793738
0000b0 23 3a 92 3f 97 e2 8e 3d 48 f4 4e 40 68 ce d5 3c
       1.1423992 0.06976812 3.2336597 0.026099399
0000c0 20 1e cb bf ab 62 83 3d d3 71 bb bf f4 d8 ff bd
       -1.5868568 0.06415304 -1.4644111 -0.124925524
0000d0 16 37 d4 bf 48 b3 a9 3f 04 77 67 bf 2c fa 68 3f
       -1.6579311 1.3257837 -0.9041598 0.9100673
0000e0 11 cb bd 3e 42 a9 18 c0 cd 25 d1 bf eb e2 69 bd
       0.3706899 -2.3853307 -1.6339661 -0.05710117
0000f0 dd 67 12 40 b2 86 9d bd cf ad ba bf 0a 7d b2 3d
       2.2875893 -0.07691707 -1.4584292 0.087152556
000100 84 0e fd be ef 46 12 3e 46 f8 c1 3f b5 1a 05 3f
       -0.49425137 0.14284872 1.5153892 0.51993877
000110 3f f8 0c 3c 0f 3d f3 be ab 08 03 40 9d 27 d0 bc
       0.008604108 -0.47507522 2.047404 -0.025409514
000120 24 fd be 3e 38 bf 53 bd f6 ae a7 bf 34 b4 8d bd
       0.37302506 -0.051696032 -1.3100269 -0.06919137
000130 0c b8 c8 bd e4 10 5b bd 22 8a 17 3f 34 19 c8 bf
       -0.09800729 -0.053482905 0.5919515 -1.5632691
000140 67 71 9f bf 64 c8 b6 3d e4 43 30 bf 12 84 f7 3f
       -1.2456483 0.0892494 -0.6885359 1.933718
000150 cb 40 1f bf 14 1e 98 bd 1b 98 00 c0 a5 3d c5 bf
       -0.6220824 -0.07427612 -2.0092838 -1.5409437
000160 21 c2 81 bd c7 cb 53 bf 56 06 e9 bf 08 f6 e4 bc
       -0.06335855 -0.82732815 -1.8205059 -0.027949348
000170 be 6b 93 3d d3 3f 97 bf cb a5 77 3d 4f 3b 27 3c
       0.071982846 -1.1816353 0.060460847 0.010207011
000180 e0 9e ab bc 60 24 e4 bd ff 31 f4 3d 06 31 84 bf
       -0.020949781 -0.111397505 0.119235985 -1.0327461
000190 46 db 34 3f 51 18 61 bd 58 34 24 bf c9 96 94 3e
       0.70647085 -0.05495483 -0.6414237 0.2902129
0001a0 5f 90 3d bd e4 3d 0a c0 43 d7 02 bd ff 11 3c bf
       -0.04628026 -2.1600275 -0.03194357 -0.7346496
0001b0 8d 66 a8 bf 1f e1 8e 3d 7b 10 04 40 00 e7 52 3a
       -1.3156296 0.06976532 2.063506 0.0008045286
0001c0 f0 05 98 be e0 01 83 3b 81 09 9a 3e 38 8a 62 3d
       -0.2969203 0.0039980263 0.30085376 0.055307597
0001d0 18 af f2 be 32 cf b9 bf 13 3b 1f c0 f7 1d 22 c0
       -0.4739921 -1.4516356 -2.4879806 -2.533079
0001e0 13 26 fe bf 79 52 a0 bf 9a e7 85 bf 2a b0 62 bc
       -1.9855369 -1.2525169 -1.0461304 -0.013835946
0001f0 fb b8 10 3f 6a 9e e3 3d 8a c8 1f c0 ed f1 c6 3d
       0.5653226 0.111141995 -2.496615 0.097141124
000200 54 06 cc 3f 85 61 a3 be e9 76 c3 be 17 40 36 3f
       1.5939431 -0.3191034 -0.3817666 0.71191543
000210 6c c3 78 3d ab 4c 16 3e 2b f0 9f 3e b5 5e 95 3c
       0.060733244 0.14677684 0.3123792 0.018233636
000220 d7 9b bf 3e cb aa d1 bc e2 9e d2 3f 7f 38 54 3d
       0.37423584 -0.025594136 1.6454737 0.05181169
000230 f2 f1 de 3d 00 35 7b 3a b4 bf 9f 3e a2 81 8d 3f
       0.10885991 0.0009582788 0.31200945 1.1055186
000240 b4 fc bf 3e 1c 70 5a 3c 44 e7 17 3f d7 1b ff 3e
       0.37497485 0.013332393 0.5933726 0.49825928
000250 ad 2b 28 3e de 8e 9a 3d 53 fa 6a 3d 93 d3 67 3f
       0.16422911 0.07546781 0.057367634 0.9055721
000260 70 e2 9a 3d a4 1c 15 bf 92 da 28 3f 90 09 de bd
       0.07562721 -0.5824683 0.6595851 -0.10841668
000270 b2 ee 0f 3c 58 c8 9b 3f dc fa ac bb ce 66 89 3c
       0.008784937 1.2170515 -0.005278928 0.016772654
000280 d6 be bd 3d a4 66 53 3d 35 64 b4 3d 8c f7 aa 3d
       0.09264915 0.051611558 0.088081755 0.08347997
000290 13 d9 a7 be 2a f9 ac bc 24 58 1e 3e 98 fb 23 3f
       -0.32782802 -0.021114904 0.1546331 0.64055777
0002a0 25 c9 90 3d 2e 28 02 3f ac 17 0c 3d ab 3a 49 3f
       0.07069615 0.5084256 0.034202263 0.78605145
0002b0 0e 81 7f 3f b2 55 fb bd 98 df 0b bf 6a bc b5 bd
       0.99806297 -0.122722045 -0.5463805 -0.08873828
0002c0 8a ca 28 bf d0 c4 ca bc 18 a9 da be 30 91 ce 3c
       -0.6593405 -0.02475205 -0.42707133 0.025215715
0002d0 83 71 39 bf b3 c1 b4 3f 1b e1 15 3d 87 77 40 3f
       -0.7243883 1.4121612 0.03659163 0.75182384
0002e0 16 20 fe 3d 60 08 d9 be 97 0f bc be c8 23 3a bd
       0.12408464 -0.42389202 -0.36730644 -0.04544428
0002f0 62 f2 32 bf b0 6a f2 bc d5 8a 3e 3e 92 7a e5 bc
       -0.69901097 -0.029591888 0.18607648 -0.028012548
000300 87 ff 7d 3f d1 e6 8c bf fe 6c d7 3f 20 56 68 3f
       0.9921803 -1.100794 1.6830137 0.90756416
000310 c8 84 67 3d 4d 45 d7 bf 0a 19 82 3f ee a7 07 3d
       0.056523114 -1.6818024 1.0163891 0.033119135
000320 39 e2 88 3f 04 c9 8e bd 7d 20 77 bf 9b d1 e4 bd
       1.0694038 -0.069719344 -0.9653395 -0.111727916
000330 78 43 c9 bd c8 ab c0 bc c3 7b 58 3f f3 ee 0b be
       -0.09827322 -0.023519412 0.84563845 -0.1366537
000340 d2 fb 1e c0 88 09 a6 bc 9e 9b 1b c0 8f 96 b0 3f
       -2.48412 -0.020268217 -2.4313731 1.3795947
000350 d0 9d d3 bf 6c 8c 49 bd d3 68 83 3f f3 f0 9b 40
       -1.6532536 -0.049206182 1.0266365 4.8731627
000360 ba 93 24 bd 03 74 54 bd 62 d0 07 bf 92 f2 a2 bd
       -0.040179946 -0.05186845 -0.5305234 -0.07956423
000370 76 b3 be 3d 9d 2d ea be ac c8 84 3d 1f ec 88 3d
       0.09311573 -0.45737925 0.064835876 0.066856615
000380 5c 32 9b bd e4 17 d4 3d fc cf 02 bd a4 76 34 c0
       -0.07577965 0.10356119 -0.03193663 -2.8197412
000390 7c 03 fe bf 1c 09 7d 3d fd 62 da bf 30 75 7c 3f
       -1.9844813 0.061776266 -1.7061459 0.98616314
0003a0 70 ab 19 3d 8c 47 c7 3f ed 15 d5 ba f3 ef 19 c0
       0.03751701 1.5568709 -0.0016257145 -2.4052703
0003b0 54 09 4d be 3f a6 96 3d d7 e1 a2 be 00 15 c0 ba
       -0.2002309 0.07355928 -0.31812927 -0.0014654696
0003c0 c6 61 da be aa 10 8f bd fc 17 a5 bf f4 98 d4 bd
       -0.4265272 -0.069856 -1.2897944 -0.10380736
0003d0 62 f3 26 3d 2d 61 13 bf c3 d7 8d 3f 03 e2 20 40
       0.04075945 -0.57570153 1.108147 2.5137947
0003e0 a1 d7 08 bf b1 c4 78 3e 01 2f a5 3d 7d d2 fa bc
       -0.53454024 0.24293782 0.08065606 -0.030617947
0003f0 68 32 10 c0 88 ec ff bd 3a 53 02 40 5d 3c c4 3d
       -2.2530766 -0.12496287 2.0363297 0.09581826

fc3.bias f4 [4]
000000 83 b8 4a 3f ec 67 cd 3e 3d 2a 89 3e 93 b4 88 3f
       0.7918779 0.4011835 0.26790038 1.0680107
